pth/model.pth (torch, 810965 bytes, 77 tensors)

conv.weight f4 [16, 3, 3, 3]
0	0xbf9ddede	-1.2333639
1	0xbf7ca703	-0.9869234
2	0x3e171e7b	0.14757721
3	0x3e8b6344	0.2722417
4	0xbe98817d	-0.29786292
5	0xbe6f8a5f	-0.23392628
6	0x3f758be9	0.9591661
7	0x3ee81a80	0.45332718
8	0xbf487253	-0.78299445
9	0xbf1e7d10	-0.6190958
10	0xbe83eb60	-0.25765514
11	0x3f3f846b	0.7481143
12	0x3f20e517	0.62849563
13	0x3e8cb88c	0.27484548
14	0x3eed877c	0.4639243
15	0x3fca1eaa	1.5790608
16	0x3f824b3f	1.0179213
17	0xbe7225a1	-0.23647167
18	0xbf9838a2	-1.1892283
19	0xbf9b68cf	-1.214136
20	0x3eb62725	0.3557674
21	0xbf1386d1	-0.5762759
22	0xbfd04710	-1.6271687
23	0xbf4aac68	-0.7916932
24	0x3e662f28	0.22478926
25	0xbe58dfc7	-0.21179114
26	0xbfdd5397	-1.7291135
27	0xbed7ed92	-0.4217344
28	0xbe7282d9	-0.23682727
29	0x3e5891a9	0.21149315
30	0x3e8c837b	0.27444062
31	0x3f69db84	0.9135058
32	0x3f0819ba	0.53164256
33	0xbdc3766e	-0.09544073
34	0x3d755609	0.059896503
35	0x3e1c5b7b	0.15269272
36	0xbf633579	-0.8875347
37	0xbe23ed82	-0.16008571
38	0xbde5ae8c	-0.11214933
39	0x3e899b61	0.26876357
40	0x3f9e4c26	1.2366989
41	0x3f34e29d	0.70658284
42	0xbea40a2c	-0.3203901
43	0xbe9ffcec	-0.31247652
44	0xbe5a96c1	-0.2134657
45	0x3f0203a4	0.50786805
46	0x3f8a232f	1.0791987
47	0x3f1d4c45	0.61444503
48	0x3fd1e34c	1.639749
49	0x405a0562	3.4065785
50	0x3fda3ad0	1.7049198
51	0x3bca4bde	0.006173595
52	0xbc69faa4	-0.014280949
53	0xbe2e3ae9	-0.1701466
54	0xbe3af4d0	-0.18257451
55	0xbefb805f	-0.49121377
56	0xbe3b205c	-0.18274063
57	0xbf84907a	-1.0356591
58	0xbfd6f34a	-1.6792996
59	0xbf61d1f2	-0.88210976
60	0xbf05aa28	-0.5221276
61	0xbf9777b6	-1.1833408
62	0xbf1cd35c	-0.6126001
63	0x3e83601e	0.2565927
64	0x3e228707	0.15871821
65	0x3e348f46	0.1763278
66	0xbd1360c7	-0.035980966
67	0xbe412431	-0.18861462
68	0x3e2dc1e3	0.16968493
69	0xbe95441c	-0.29153526
70	0xbe6dda92	-0.23227909
71	0xbe8b499e	-0.27204603
72	0x3ed594be	0.41715044
73	0x3f606c12	0.876649
74	0x3de7fa06	0.11326985
75	0x3f821a5b	1.0164293
76	0x3f8ae702	1.0851748
77	0x3f6e3600	0.9305115
78	0x3f73bca2	0.95209706
79	0x3fb6b6cd	1.4274536
80	0x3f2e8ba3	0.6818182
81	0xbefcd5f3	-0.4938198
82	0xbb09e2cc	-0.0021039722
83	0xbe779322	-0.2417722
84	0xbf44d99c	-0.76894546
85	0x3e5f0f64	0.21783215
86	0xbf794e95	-0.9738553
87	0xbe90bd2e	-0.28269333
88	0xbf21a3ec	-0.6314075
89	0xbd80f99f	-0.062976114
90	0xbf07e14c	-0.5307815
91	0xbe2741c0	-0.16333675
92	0xbf1e59ab	-0.6185557
93	0x3e22c5ab	0.15895717
94	0x3f82a99a	1.0208008
95	0xbf4a6f31	-0.79075915
96	0xbeef6ca5	-0.46762577
97	0xbf2399c2	-0.6390649
98	0xbeadc21b	-0.33937153
99	0xbcb4403b	-0.022003284
100	0x3f397821	0.7244893
101	0xbe9f387b	-0.3109778
102	0x3fa32483	1.2745517
103	0x4050d7b3	3.2631652
104	0x3f4cf876	0.8006662
105	0xbe004e6b	-0.12529914
106	0x3edd2aaf	0.43196627
107	0x3e4b6685	0.19863327
108	0xbe60ffdc	-0.21972603
109	0xbf16e0b5	-0.58936626
110	0xbe8fbc8e	-0.28073543
111	0xbe912321	-0.28347114
112	0xbf0f97fe	-0.56091297
113	0xbe071fd8	-0.13195741
114	0xbe8ba410	-0.27273607
115	0xbf304db1	-0.6886855
116	0xbe607fed	-0.219238
117	0xbd4ff44a	-0.05077008
118	0xbeb9d63b	-0.36296257
119	0xbbdef131	-0.0068036546
120	0x3d9d348c	0.07676038
121	0xbe9c160b	-0.30485567
122	0x3dfdb256	0.123875305
123	0xbcde51a9	-0.027138548
124	0xbee41c86	-0.44553012
125	0x3c723b9d	0.014784721
126	0xbd4c79b0	-0.049920738
127	0xbe91ba34	-0.28462374
128	0xbe8744bb	-0.26419625
129	0xbd90bf64	-0.07067755
130	0xbe5c41d8	-0.21509492
131	0x3db2abae	0.087241516
132	0xbeaf5ed6	-0.34252042
133	0xbe8fad1d	-0.28061762
134	0xbeb11c7a	-0.34592038
135	0xbd829692	-0.06376375
136	0x3ec7afd4	0.39001334
137	0x3ea5ae8b	0.32359728
138	0x40089230	2.1339226
139	0xbf874ece	-1.0570924
140	0x3deaf1d3	0.114719056
141	0x3f3d51d3	0.7395298
142	0xbf3c6652	-0.7359363
143	0x3df2b830	0.11851537
144	0xbeb57279	-0.35438898
145	0xbf0f5cb5	-0.56000835
146	0xbe2e9669	-0.17049564
147	0x3fe02caa	1.751363
148	0xc0036f29	-2.0536597
149	0xbf2b2f27	-0.66868824
150	0x3d814d10	0.06313527
151	0xbf913b9c	-1.1346316
152	0x3cabbba7	0.020963503
153	0xbe3a949f	-0.18220757
154	0x3e4fbb39	0.20286264
155	0xbdc4814d	-0.09594975
156	0x3ffd0913	1.9768394
157	0xbf3e6ec8	-0.7438779
158	0xbedf0068	-0.43554997
159	0x3f70efa5	0.9411567
160	0xbe8dd4dc	-0.2770146
161	0xbe3bb7f8	-0.18331897
162	0x3f6d319c	0.9265382
163	0x3fe07df3	1.7538437
164	0x3f89fdb6	1.0780551
165	0x3f0e7c40	0.5565834
166	0xbf2f9d72	-0.6859962
167	0x3e9a2e8f	0.30113646
168	0xbf1602d9	-0.58598095
169	0xbfb883bf	-1.4415206
170	0xbf21ba49	-0.63174874
171	0xbf1edc5e	-0.62055004
172	0xbee48058	-0.4462917
173	0xbeb407ab	-0.351621
174	0xbe4c8993	-0.19974355
175	0xc033c04c	-2.8086119
176	0x3dfe10b9	0.12405533
177	0xbe9a2b18	-0.30111003
178	0xbf96a8f9	-1.1770316
179	0x3edb0c20	0.42782688
180	0xbf5d1bf3	-0.8637077
181	0xbe32f23c	-0.17475218
182	0xbfa2678e	-1.2687852
183	0x3f00f333	0.5037109
184	0xbea81f70	-0.32836485
185	0x3d32cda4	0.043653145
186	0x3f8c4132	1.0957396
187	0x3f6b131f	0.9182605
188	0x3f79f5ab	0.97640485
189	0x3f0584bf	0.5215568
190	0xbfa2417d	-1.2676235
191	0xbfe2c492	-1.7716238
192	0x3eca40eb	0.39502653
193	0xbf9fe06c	-1.2490363
194	0xbf81b966	-1.0134704
195	0x3ec4f65e	0.38469213
196	0xbef84320	-0.48488712
197	0xbd4a744c	-0.049427316
198	0x3e838bfc	0.25692737
199	0xbf9942f4	-1.1973557
200	0xbfd0a2bb	-1.6299661
201	0x3dda4bb5	0.10658971
202	0xbfa338d5	-1.2751719
203	0xbf788aa4	-0.9708655
204	0x3d8c0e29	0.06838638
205	0xbf343e01	-0.7040711
206	0xbe2971bb	-0.16547291
207	0x3d8361ee	0.06415163
208	0xbf6c8026	-0.9238304
209	0xbf773de2	-0.965788
210	0x3ee6cb7a	0.45077115
211	0xbf23fb00	-0.6405487
212	0xbf41f245	-0.757603
213	0x3f088b69	0.53337723
214	0x3cd5dc32	0.026105974
215	0x3e7d6ee9	0.2474934
216	0xbda625f4	-0.08112708
217	0x3efa4a18	0.48884654
218	0x3e3ce325	0.18446024
219	0xbfe33fc4	-1.7753835
220	0x3e59ec31	0.21281506
221	0x3f8293f9	1.0201408
222	0xbd6b5104	-0.05745031
223	0xbf1e3bd2	-0.6181003
224	0x3ea3ce34	0.31993258
225	0xbe948f3e	-0.29015535
226	0xbdd06a40	-0.101765156
227	0x3e86cbbb	0.2632731
228	0xbfd6f1c2	-1.6792529
229	0x3e073a0c	0.13205737
230	0x3fa8a3c8	1.3174982
231	0xbea53eb4	-0.322744
232	0xbf4b7b3f	-0.79484934
233	0x3ec6ae92	0.38805062
234	0xbdd1158d	-0.102091886
235	0x3e0504e6	0.1299015
236	0x3edd556c	0.43229234
237	0xbfd4c614	-1.6622949
238	0x3f078fc4	0.52953744
239	0x3fe7388b	1.806413
240	0xbedcc0c9	-0.43115833
241	0xbf0cc857	-0.54993194
242	0x3f846ca4	1.0345654
243	0xbdc3b4ed	-0.09555993
244	0xbe34872e	-0.17629692
245	0xbcb21168	-0.021736816
246	0x3d65d6b9	0.05611298
247	0x3da7ee04	0.08199695
248	0x3c1863bd	0.009301123
249	0x3ad59eb0	0.0016297903
250	0x3df613e2	0.12015511
251	0x3d9894c7	0.07450252
252	0x3d913382	0.070899025
253	0xbec3259b	-0.38114628
254	0xbe4cadbf	-0.19988154
255	0x3e0033dc	0.12519783

bn.weight f4 [16]
0	0x3f593932	0.848529
1	0x3f57cd4b	0.8429763
2	0x3f4fc2a6	0.81156385
3	0x3faa3e07	1.3300179
4	0x3ea1c757	0.31597397
5	0x40080684	2.1253977
6	0x3fac2613	1.3449119
7	0x3f5cee5e	0.8630122
8	0x3fc3da30	1.530096
9	0x3e7e800e	0.24853536
10	0x3fff4e2e	1.9945734
11	0x3f987a5e	1.1912344
12	0x3e9e192c	0.3087858
13	0x3fb042e6	1.3770416
14	0x3fc123a4	1.5089002
15	0x3fd6e797	1.6789426

bn.bias f4 [16]
0	0xbee2b4f0	-0.4427867
1	0xbebae38b	-0.36501727
2	0x3eeaac7b	0.45834717
3	0x3ec19dda	0.37815744
4	0xbf4c5cac	-0.79828906
5	0x3fb1511a	1.3852875
6	0xbec8c960	-0.39216137
7	0xbf4ac50c	-0.7920692
8	0x3ef5f9ea	0.48042232
9	0xbf7a03c5	-0.97662
10	0x3fb4794e	1.4099519
11	0x3f77302b	0.96557873
12	0xbf5c0c94	-0.8595669
13	0x3f1c73a0	0.6111393
14	0x3fdec415	1.740359
15	0x3fbd7b31	1.480322

bn.running_mean f4 [16]
0	0xc00ba029	-2.1816504
1	0x4096dc61	4.7144017
2	0xbe30d7b7	-0.17269789
3	0x3e816f9e	0.2528047
4	0xc0318a46	-2.7740645
5	0xbdee443a	-0.11634107
6	0xbfbdad3a	-1.481849
7	0xc0b73170	-5.724785
8	0x3d2ccb3b	0.042186003
9	0x3fd46d7d	1.6595913
10	0xbe3137a4	-0.17306381
11	0x3efa0286	0.4883005
12	0x4032c31b	2.7931583
13	0xbddd6a78	-0.10811323
14	0x3f11571b	0.5677354
15	0x3e8adc72	0.2712131

bn.running_var f4 [16]
0	0x4005c351	2.0900462
1	0x40d35c42	6.605012
2	0x3fa3a77f	1.2785491
3	0x3f768baa	0.9630686
4	0x3fe0d350	1.7564487
5	0x3f622e7e	0.8835219
6	0x3f355b2a	0.7084223
7	0x4108a0b5	8.539235
8	0x3fc832cc	1.5640502
9	0x3f800efa	1.000457
10	0x4022d8ea	2.5444894
11	0x3f16b52b	0.5887019
12	0x3feffa44	1.874825
13	0x40184f9a	2.3798585
14	0x3f45c1be	0.7724875
15	0x3f220c65	0.6330016

layer1.0.conv1.weight f4 [16, 16, 3, 3]
0	0x3de0eaa8	0.10982257
1	0xbf9a8096	-1.2070491
2	0xbea42361	-0.32058242
3	0xbe8015dd	-0.2501668
4	0xbf4117c4	-0.7542689
5	0x3daab76c	0.08335766
6	0xbe882ca1	-0.2659655
7	0xbd0e9868	-0.034813315
8	0xbd401800	-0.04689789
9	0x3f0ffe12	0.56247056
10	0x3f7adc18	0.97992086
11	0x3f53bcaa	0.82709754
12	0x3f6a451a	0.9151169
13	0x3f5b340c	0.8562629
14	0x3f244299	0.6416412
15	0x3f3b715c	0.7321985
16	0x3f313184	0.6921618
17	0x3f0535ff	0.52035517
18	0xbe87964f	-0.26481864
19	0x3d8ae5f6	0.06782143
20	0xbdd28bad	-0.10280547
21	0xbeb0bbab	-0.3451818
22	0xbd4a2bd2	-0.049358197
23	0xbe964853	-0.29352054
24	0xbe507353	-0.20356493
25	0xbdbd25dd	-0.092357375
26	0x3cc54700	0.024081707
27	0xbde22655	-0.110424675
28	0x3eec1955	0.46113077
29	0x3e962e13	0.29332027
30	0xbf375c54	-0.71625257
31	0xbfa682af	-1.3008631
32	0xbeaeea05	-0.34162918
33	0x3e8a4e19	0.2701271
34	0x3e05a976	0.13052925
35	0x3eaeb27d	0.3412055
36	0x3decb8a9	0.11558659
37	0x3d7b50a3	0.061356198
38	0x3e0d3aae	0.13791916
39	0x3e66fbb2	0.22556952
40	0x3eb1dc25	0.3473827
41	0xbdea5d61	-0.11443592
42	0x3e0df515	0.13863023
43	0x3e6539ad	0.22385283
44	0xbe473ffa	-0.19457999
45	0x3ef8b24c	0.4857353
46	0x3ec8d444	0.39224446
47	0xbf01f072	-0.50757515
48	0x40071abb	2.1110065
49	0x3f5c9f5e	0.86180675
50	0xc016feee	-2.3593097
51	0xbdcedf5f	-0.101011984
52	0x3e3b6a89	0.18302359
53	0xbf83cd62	-1.0297053
54	0x3eaed42f	0.34146258
55	0x3f96d1d1	1.1782781
56	0x3f265e1c	0.6498735
57	0x3e8d3515	0.2757956
58	0x3f9a04f5	1.2032763
59	0xbea4a7b2	-0.3215919
60	0xbf88b7ce	-1.0681093
61	0xbf19162b	-0.5979945
62	0xbf2b91f3	-0.67019576
63	0xbeaacde4	-0.33360207
64	0xbe1a2d42	-0.15056327
65	0xbf1f1fd0	-0.6215792
66	0x3f2e5e41	0.6811257
67	0x3ef00a4d	0.4688286
68	0xbe16092b	-0.14651935
69	0x3f7b62bb	0.98197526
70	0x3f0760c1	0.5288201
71	0xbebca19e	-0.36842054
72	0xbfb6b4ca	-1.4273922
73	0x3dceafc2	0.10092117
74	0xbf8a3311	-1.0796834
75	0xc0749dc8	-3.8221302
76	0x3f3cf5a5	0.73812324
77	0x3eb18863	0.34674367
78	0xc03cae0c	-2.948123
79	0xbda426d2	-0.08015217
80	0x3e8c4cf4	0.2740246
81	0xbd147c6a	-0.036251463
82	0x3dc8ee38	0.098110616
83	0x3e29467d	0.16530795
84	0xbd79a6a9	-0.060949955
85	0xbe5bd2ff	-0.21467207
86	0xbdc0b5db	-0.09409686
87	0xbe120185	-0.14258392
88	0xbdf35bf3	-0.11882772
89	0xbe7c72c9	-0.24653162
90	0xbd95520c	-0.0729104
91	0x3f60436d	0.87602884
92	0x3f4d328d	0.8015526
93	0xbf1d4c0d	-0.6144417
94	0xbe1ce8e6	-0.15323219
95	0xbf1c5f3f	-0.61082834
96	0xbf297a3d	-0.66202146
97	0xbf7724ee	-0.96540725
98	0xbec82f77	-0.39098713
99	0x3f3797c3	0.71715945
100	0x3f21fab5	0.63273174
101	0x3d3d7016	0.04624947
102	0xbfd51896	-1.6648128
103	0x3f074687	0.5284199
104	0x3f342fa6	0.70385206
105	0xbfb248db	-1.3928484
106	0xbf11e203	-0.5698549
107	0xbf4230a1	-0.7585545
108	0x3bbec21a	0.0058214786
109	0xbe8a0223	-0.26954755
110	0xbd52a338	-0.05142519
111	0xbe554a5f	-0.20829152
112	0xbe006803	-0.12539677
113	0xbc96006d	-0.01831075
114	0x3bdd3e49	0.0067518097
115	0xbbbd8638	-0.0057838224
116	0x3e34b5f9	0.17647542
117	0xbec38a2b	-0.3819135
118	0xbf846556	-1.0343425
119	0xbf725ebd	-0.9467581
120	0x3f9da8b6	1.2317111
121	0xbf831345	-1.0240256
122	0xbfffdc2a	-1.9989064
123	0x3e906380	0.28200912
124	0xbec4ae52	-0.38414246
125	0xbfb7b25b	-1.4351305
126	0xbf035206	-0.5129703
127	0xbf6b110e	-0.918229
128	0xbf4b2704	-0.7935641
129	0xbfe084d4	-1.7540536
130	0x3f5e6479	0.8687206
131	0x3fae6f79	1.3627769
132	0xbfd9efe0	-1.7026329
133	0xbf35d26a	-0.7102419
134	0xbe92149a	-0.28531343
135	0xbf429e8b	-0.7602317
136	0xbeff9b9b	-0.49923405
137	0x3eef3ee4	0.4672767
138	0x3bdffacc	0.0068353172
139	0xbd818b36	-0.063253805
140	0x3d48f493	0.04906137
141	0x3d2fef04	0.042952552
142	0x3e83a38b	0.2571071
143	0xbea9e833	-0.33184966
144	0xbdb00bf2	-0.085960284
145	0xbe96b82a	-0.2943738
146	0xbf099709	-0.53746086
147	0xbfa8db1f	-1.319187
148	0xbf998c0f	-1.1995867
149	0xbf42e8be	-0.76136386
150	0xbfed6cf8	-1.854888
151	0xbffbef1b	-1.9682344
152	0xbfc3147f	-1.524063
153	0xbf55040a	-0.8320929
154	0xbf83de60	-1.0302238
155	0xbf87a3f3	-1.0596908
156	0xbeaf25c4	-0.342085
157	0xbec0dfbb	-0.37670693
158	0xbeff7e45	-0.49901024
159	0xbeb39647	-0.3507559
160	0xbd51b8d7	-0.051201668
161	0xbe1bc53e	-0.1521196
162	0xbfc456af	-1.5338954
163	0xbfa1e773	-1.2648758
164	0xbd2ad344	-0.041705385
165	0xbf14bd0d	-0.5810097
166	0xbf1cc782	-0.61241925
167	0x3eb4f194	0.3534056
168	0x3f522272	0.8208381
169	0x3f08c41a	0.5342423
170	0x3f77a778	0.9673991
171	0xbf94c331	-1.1622068
172	0xbfc34558	-1.5255537
173	0xbf307816	-0.68933237
174	0x3da7b040	0.08187914
175	0xbf39d268	-0.7258668
176	0xbee5a18c	-0.44849813
177	0x3f52f4c3	0.82404727
178	0x3ed59a0a	0.41719085
179	0x3f7a81f1	0.97854525
180	0xbe60554e	-0.21907541
181	0xbe926e88	-0.28599954
182	0xbe66e78b	-0.22549264
183	0xbeb2c1a2	-0.34913355
184	0xbd6fa1fc	-0.05850409
185	0x3bdec3b7	0.0067982334
186	0xbe8e3d98	-0.27781367
187	0xbd8704a7	-0.06592684
188	0x3d8f4d6f	0.06997191
189	0x3f14474f	0.5792131
190	0x3ef09cd0	0.46994638
191	0x3e9059c5	0.2819349
192	0x3ea2aba8	0.31771588
193	0x3f919fb0	1.1376858
194	0x3f71614f	0.94289106
195	0xbf202e74	-0.6257088
196	0xbf01788e	-0.50574577
197	0x3ed1b9fa	0.409622
198	0xbf1865d4	-0.5953038
199	0xbe3cba82	-0.18430522
200	0x3e89027f	0.26759717
201	0xbf899a51	-1.0750219
202	0x3e1bb0f7	0.15204225
203	0x3f4445c9	0.76668984
204	0xbf7b6163	-0.98195475
205	0xbf2d6461	-0.6773129
206	0xbe0e8349	-0.13917269
207	0x3ddac9a0	0.10682988
208	0xbf112e82	-0.5671159
209	0xbe7e887a	-0.24856749
210	0xbf074f9c	-0.5285585
211	0xbea6733c	-0.32509792
212	0x3d315afe	0.043299668
213	0xbf71eefa	-0.94505274
214	0xbf06a707	-0.52598614
215	0xbd6dcba0	-0.05805552
216	0xbfbd1c1b	-1.4774202
217	0xbf375a6a	-0.71622336
218	0xc005d959	-2.0913908
219	0xbf1798d8	-0.59217596
220	0xbee95a5e	-0.45576757
221	0xc0216f32	-2.5224118
222	0xbe749cd7	-0.23887955
223	0xbe736bbc	-0.23771566
224	0xc02694d9	-2.602835
225	0x3be2572c	0.0069073644
226	0xbd3b07f9	-0.0456619
227	0xbd12737d	-0.03575467
228	0x3d067c1a	0.032833196
229	0xbd5ed4db	-0.054402214
230	0xbda04afe	-0.078268036
231	0x3d28a709	0.041174922
232	0xbcbeef24	-0.02330739
233	0xbd8c2690	-0.06843293
234	0xbf8db3f0	-1.1070538
235	0xbc1d606b	-0.009605507
236	0x3f935dbd	1.1512982
237	0xbf2254cf	-0.6341066
238	0xbfa5657e	-1.2921598
239	0xbfa86dae	-1.3158472
240	0xbe17cd8d	-0.14824505
241	0xbf734c21	-0.9503804
242	0xbff362ca	-1.9014523
243	0x3d9999ea	0.0750006
244	0x3d489793	0.048972677
245	0xbea8cd6a	-0.32969218
246	0x3e4451ea	0.19171873
247	0xbf1de600	-0.6167908
248	0xbef8d34b	-0.48598704
249	0x3e4d23b9	0.20033158
250	0x3e784b83	0.24247555
251	0xbf01011e	-0.5039233
252	0xbec578a9	-0.3856862
253	0xbe812b3b	-0.25228295
254	0xbaa56b30	-0.0012620445
255	0xbe8f3c01	-0.27975467

layer1.0.bn1.weight f4 [16]
0	0x3fbd03a1	1.4766732
1	0x3fa78c14	1.3089623
2	0x3f325356	0.6965841
3	0x40362a51	2.8463328
4	0x4054d13a	3.3252702
5	0x3f58b4b6	0.84650743
6	0x3f42a760	0.76036644
7	0x3f75c46b	0.96002835
8	0x3faa4a64	1.3303952
9	0x4003e175	2.0606358
10	0x3f0b5168	0.5442109
11	0x3f5f3b3c	0.8719976
12	0x3fda2f35	1.7045656
13	0x3f6f257e	0.93416584
14	0x3f6ead27	0.9323296
15	0x3f4720b0	0.7778425

layer1.0.bn1.bias f4 [16]
0	0x3f12e5d2	0.5738193
1	0xbea00226	-0.3125164
2	0x3dc03309	0.09384734
3	0x3fee3f79	1.861312
4	0x40528f61	3.2900012
5	0xbeb29aad	-0.34883633
6	0xbf25600b	-0.64599675
7	0xbf43d618	-0.76498556
8	0x3df1fdbe	0.118159756
9	0x3f8f9911	1.1218587
10	0xbd98ba4c	-0.07457408
11	0xbf394fc6	-0.7238735
12	0xbf1a5ba7	-0.602961
13	0xbec287c4	-0.37994206
14	0xbf73f4b3	-0.95295256
15	0x3e93f616	0.28898686

layer1.0.bn1.running_mean f4 [16]
0	0xc1cc1975	-25.51243
1	0xc1a7561b	-20.917044
2	0xc244fcb8	-49.246796
3	0xc1405f86	-12.023321
4	0xc0e351ea	-7.1037493
5	0xc1d74468	-26.908401
6	0xc228085c	-42.008163
7	0x42101538	36.02072
8	0xc065ec77	-3.5925577
9	0xc13c40ea	-11.765848
10	0xc1d0360e	-26.026394
11	0x3fbeb043	1.4897541
12	0xc22fd4b6	-43.957726
13	0xc205aabc	-33.416733
14	0xc1bd2514	-23.643105
15	0xc18a23d8	-17.267502

layer1.0.bn1.running_var f4 [16]
0	0x43be28dd	380.31924
1	0x439c57be	312.6855
2	0x43dc5b2e	440.71234
3	0x432506af	165.02611
4	0x42bacc88	93.399475
5	0x43a76db2	334.857
6	0x4396dd4f	301.72897
7	0x438dbff3	283.4996
8	0x439d6228	314.76685
9	0x4314c542	148.77054
10	0x4336fdfb	182.99211
11	0x43697761	233.46632
12	0x440b94bf	558.32416
13	0x438cefdc	281.8739
14	0x43a04223	320.5167
15	0x43a3a2f9	327.27322

layer1.0.conv2.weight f4 [16, 16, 3, 3]
0	0x3f84b1bb	1.0366739
1	0x3e2cb75c	0.16866821
2	0xbf348dbe	-0.7052878
3	0x3f557e53	0.8339588
4	0x3fb7ef4a	1.43699
5	0x3f7e943d	0.99444944
6	0xbece479e	-0.40289015
7	0xbf4455b1	-0.76693255
8	0x3f4477a9	0.76745087
9	0xbd65d687	-0.056112792
10	0xbecf36cc	-0.40471494
11	0xbf1564d2	-0.58356965
12	0x3fd73d91	1.6815664
13	0x3f8de296	1.1084774
14	0xbde83c0c	-0.11339578
15	0x3eb6f36e	0.35732597
16	0x3fb332fb	1.3999933
17	0x3f8509aa	1.0393574
18	0xbe8d38ef	-0.275825
19	0xbe8d4f24	-0.27599442
20	0xbf38bf96	-0.72167337
21	0x3eb3c4c8	0.3511107
22	0x3c6ee35e	0.014580576
23	0xbf4651a7	-0.7746834
24	0x3e42b172	0.19013003
25	0xbea2cfe7	-0.31799242
26	0xbf56a2b1	-0.83842
27	0x3dea0ffd	0.11428831
28	0x3f1c3bc0	0.6102867
29	0x3fb10e60	1.3832512
30	0x3e8469ec	0.25862062
31	0xbfc95a19	-1.5730621
32	0x3e8b0b26	0.27156943
33	0x3eecd375	0.4625508
34	0xbf04cb1f	-0.5187244
35	0xbfbc1a92	-1.4695609
36	0x3fb1f4e6	1.3902862
37	0xbeedbd4a	-0.4643348
38	0xbfa83917	-1.3142422
39	0x3eb5de4c	0.35521162
40	0x402401a7	2.5626009
41	0x3eb62428	0.3557446
42	0xbfe3040f	-1.7735614
43	0xbfceef11	-1.6166707
44	0x3fae560c	1.362001
45	0xbf27f019	-0.65600735
46	0xbf5fbc59	-0.8739677
47	0xbdc3bec2	-0.095578685
48	0xbf20083a	-0.6251255
49	0xbf81215b	-1.0088304
50	0xbf3e79a6	-0.7440437
51	0xbf73b7e6	-0.9520248
52	0xbf647f4f	-0.8925676
53	0xbf9ad4ee	-1.2096231
54	0xbe522c5d	-0.20524736
55	0x3e82d3b4	0.25552142
56	0x3ecdb7c6	0.4017927
57	0xbf195b05	-0.5990451
58	0x3d312f4a	0.04325799
59	0x3dc4dfeb	0.096130215
60	0xbf4e06de	-0.8047923
61	0xbec425e9	-0.38310173
62	0xbf6b9f26	-0.92039716
63	0x3ef21948	0.47284913
64	0x3ecd1042	0.40051466
65	0x3eb073a7	0.34463236
66	0x3e91db08	0.2848742
67	0xbe5884f5	-0.21144469
68	0xbe5d3d09	-0.21605314
69	0xbe961240	-0.293108
70	0xbd3f1419	-0.046650026
71	0xbe136d1a	-0.14397088
72	0x3f0969aa	0.53676856
73	0xbeabeb88	-0.33578134
74	0xbf905d67	-1.1278504
75	0xbdfbecb6	-0.123010084
76	0x3f95045d	1.1641957
77	0x3f27dd5f	0.6557216
78	0xbea00286	-0.31251925
79	0xbec0f532	-0.3768707
80	0x3f2c27c7	0.67248195
81	0x3f7b02f8	0.98051405
82	0x3f140f62	0.5783597
83	0xbf10234c	-0.5630386
84	0xbf986e33	-1.190863
85	0x3fc7aedf	1.5600241
86	0x3fbe78b2	1.4880583
87	0xbfaa936c	-1.332624
88	0xbfcccb98	-1.5999632
89	0x3cc573b0	0.024103016
90	0xbf58eac8	-0.8473325
91	0xbd594b8e	-0.05305057
92	0x3f26f67d	0.6521986
93	0xbe7ebb6d	-0.24876185
94	0xbe1145cc	-0.14186782
95	0x3dc027ea	0.09382613
96	0xbea65d58	-0.3249309
97	0xbf14b929	-0.5809503
98	0xbf6a31b4	-0.9148209
99	0xbd936210	-0.07196438
100	0xbe101334	-0.14069825
101	0x3ea2df1d	0.31810847
102	0xbf2e791b	-0.6815354
103	0xbee665a1	-0.44999412
104	0xbdd47438	-0.103737295
105	0xbf10df4f	-0.5659074
106	0xbf44e371	-0.7690955
107	0xbf26905d	-0.6506403
108	0xbee07aa0	-0.43843555
109	0x3f2b79a7	0.669825
110	0x3f6bff1d	0.92186147
111	0xbf47ae73	-0.78000563
112	0x3e5fbd00	0.21849442
113	0x3f70e4b0	0.9409895
114	0xbfc0fba0	-1.507679
115	0xbebd33e0	-0.3695364
116	0x3da8a1ce	0.08233987
117	0x3de832b9	0.113377996
118	0x3ee5638a	0.44802505
119	0x3ec93cf1	0.39304307
120	0x3c4a8b17	0.012362263
121	0x3e5aaebe	0.21355721
122	0xbdc1bdb7	-0.09460013
123	0x3eb002fe	0.34377283
124	0x3ed6bd4f	0.41941306
125	0xbf080589	-0.53133446
126	0xbe5b3e59	-0.21410502
127	0x3f17a00f	0.59228605
128	0xbd3635a2	-0.044484742
129	0x3ef7ac11	0.48373464
130	0x3f446371	0.76714236
131	0xbee9ae9b	-0.45641026
132	0xbe1bb620	-0.15206194
133	0xbe163cad	-0.14671583
134	0xbf6ba79a	-0.92052615
135	0xbfc30589	-1.5236064
136	0x3d03c5df	0.032171126
137	0x3f177a2e	0.59170806
138	0xbfad47a7	-1.3537492
139	0xbf8141ac	-1.0098166
140	0xbe449df9	-0.19200887
141	0xbf1faaeb	-0.62370175
142	0xbf57759f	-0.8416385
143	0xbf1d7d3c	-0.6151922
144	0xbfc2e380	-1.5225677
145	0xbf800243	-1.000069
146	0xbf3d2d94	-0.7389767
147	0xbf923b2d	-1.1424309
148	0xbfced82f	-1.6159724
149	0xbfcf72c3	-1.6206897
150	0xbe26edfe	-0.16301724
151	0xbf012a44	-0.5045512
152	0xbf206741	-0.6265755
153	0xbe8dafc4	-0.2767316
154	0x3e3fcc28	0.18730223
155	0x3f795afc	0.97404456
156	0xbfc012d6	-1.5005748
157	0xbf8b6475	-1.0890032
158	0x3e3ce5e0	0.18447065
159	0xbf735060	-0.9504452
160	0xbf719dba	-0.94381297
161	0xbe74c624	-0.2390371
162	0x3f7a7d07	0.97847027
163	0x3fb31bd2	1.3992865
164	0x3f9c9d5c	1.2235522
165	0x3f7195af	0.94369024
166	0x3f80f8f7	1.0075978
167	0x3edc7dec	0.4306482
168	0x3eaa816f	0.33301875
169	0x3ea885dc	0.32914627
170	0xbd8fc7e9	-0.07020552
171	0x3f57e14e	0.8432816
172	0x3f36c102	0.71388257
173	0x3d273529	0.04082218
174	0x3f9a5cb5	1.2059542
175	0x3fe7e817	1.8117703
176	0x3eb25fee	0.34838814
177	0x3edb0545	0.42777458
178	0xbecbb7a4	-0.39788544
179	0xbe811494	-0.25211012
180	0xbfa35494	-1.2760186
181	0xbf8147dd	-1.0100056
182	0xbdc84c53	-0.09780183
183	0xbf1a80b3	-0.6035263
184	0xbf613500	-0.87971497
185	0x3df0933c	0.11746833
186	0x3dc4f121	0.09616304
187	0x3f83f1e5	1.0308195
188	0x3dc6a1a0	0.09698796
189	0xbed32eef	-0.41246745
190	0xbe9b8bdf	-0.3038015
191	0xbf09cbc8	-0.5382657
192	0xbe92a393	-0.28640422
193	0xbedb31cd	-0.42811432
194	0xbf249855	-0.6429494
195	0x3d149557	0.036275234
196	0xbdf05b95	-0.11736218
197	0xbe7edec9	-0.24889673
198	0xbd3bbfbe	-0.045837156
199	0x3e021946	0.12704954
200	0xbc16d6b0	-0.009206459
201	0x3dc1ec4a	0.09468897
202	0x3d746c69	0.0596737
203	0xbe45a011	-0.19299342
204	0xbdabe1b2	-0.08392657
205	0x3e489f1c	0.19591945
206	0xbd6c14de	-0.057637088
207	0x3dc99628	0.09843093
208	0x3e9bbfd8	0.30419803
209	0x3e5b6a76	0.2142733
210	0x3d634008	0.055480987
211	0x3d5d0a50	0.053964913
212	0x3d4b0092	0.04956109
213	0xbf20090b	-0.625138
214	0xbf4e9c91	-0.8070765
215	0xbf290b9a	-0.6603333
216	0xbee5140a	-0.4474185
217	0xbe3b4df2	-0.18291453
218	0xbd10e68c	-0.035376117
219	0xbf729696	-0.94761026
220	0xc0106d5a	-2.2566743
221	0xbff9621c	-1.9483066
222	0xbf0ce11c	-0.5503099
223	0xbf8a094a	-1.0784085
224	0xbf85c854	-1.045176
225	0xbf33e7c6	-0.70275533
226	0xbeed1db3	-0.4631172
227	0x3cc28e38	0.023749456
228	0x3f101721	0.5628529
229	0xbf7e5155	-0.9934285
230	0xbfdc840b	-1.7227796
231	0x3ed888b1	0.42291787
232	0x3e19938e	0.14997694
233	0xbd3c4e5d	-0.04597317
234	0x3d82999f	0.06376957
235	0x3e48f35b	0.19624083
236	0xbe3c3701	-0.18380357
237	0x3ecaec67	0.39633486
238	0x3efeadbf	0.49741933
239	0x3e962425	0.2932445
240	0x3e5f334e	0.21796915
241	0x3e8d592b	0.27607092
242	0xbe898287	-0.26857397
243	0x3db7232c	0.089422554
244	0x3e09873d	0.13430496
245	0x3da63e49	0.08117349
246	0x3f854ad5	1.0413462
247	0x3f8ada21	1.0847818
248	0x3f4f4453	0.8096363
249	0x3ef731ce	0.48280185
250	0x3ee353e7	0.4439995
251	0x3e2faa5e	0.17154834
252	0x3f04bb95	0.5184873
253	0x3e96321c	0.29335105
254	0xbecc6093	-0.3991743
255	0x3e93b7e9	0.2885125

layer1.0.bn2.weight f4 [16]
0	0x40122d06	2.283998
1	0x3ec5d41d	0.38638392
2	0x3eddd6ce	0.43327945
3	0x3f8718a9	1.0554401
4	0x3f9d69e5	1.2297941
5	0x3f5579cd	0.8338898
6	0x3f39cd53	0.72578925
7	0x3fe2f081	1.7729646
8	0x4039dff6	2.9042945
9	0x40304842	2.7544103
10	0x3fec43e2	1.8458216
11	0x3fd9cd9e	1.7015874
12	0x401836b8	2.3783398
13	0x408ad997	4.3390613
14	0x40384a0e	2.87952
15	0x3f92e59f	1.1476325

layer1.0.bn2.bias f4 [16]
0	0xbea7af29	-0.32750824
1	0xbd28cfad	-0.04121368
2	0x3e161ead	0.1466014
3	0xbef94777	-0.48687336
4	0xbefe2ac2	-0.49641997
5	0xbfd9fb04	-1.7029729
6	0xbe89b91e	-0.26899046
7	0x3e1bca9f	0.15214013
8	0x3ec3dab8	0.38252807
9	0x3f280c33	0.65643615
10	0xbf51da9d	-0.819742
11	0xbdef31a1	-0.11679388
12	0xbe8bdaba	-0.27315313
13	0xbf976a4d	-1.1829315
14	0xbdabf963	-0.08397176
15	0xbf919c93	-1.1375908

layer1.0.bn2.running_mean f4 [16]
0	0x40206cd2	2.5066419
1	0xc16c9f36	-14.78887
2	0xc0ed0fd1	-7.4081807
3	0x4112ac9d	9.167142
4	0xc1929b85	-18.325937
5	0xc1b64fdc	-22.788994
6	0xc0be584f	-5.94828
7	0xc052568b	-3.2865322
8	0xbf5ec82b	-0.8702418
9	0xc06a38b9	-3.659712
10	0x3feb237d	1.8370205
11	0xc0e9f112	-7.3106775
12	0xc18c13e2	-17.509708
13	0x40350f6b	2.829066
14	0xbf67852a	-0.9043757
15	0x4156c48b	13.422984

layer1.0.bn2.running_var f4 [16]
0	0x43decb13	445.58652
1	0x43dda91a	443.3211
2	0x4310a093	144.62724
3	0x435f3773	223.2166
4	0x43e6eb4a	461.8382
5	0x43460294	198.01007
6	0x4383490d	262.5707
7	0x43771564	247.08356
8	0x439b2f1c	310.36804
9	0x43914f18	290.61792
10	0x43f97e41	498.98636
11	0x43f5d00e	491.62543
12	0x43adc62d	347.54825
13	0x444fe87e	831.6327
14	0x43b042d7	352.5222
15	0x43601537	224.08287

layer1.1.conv1.weight f4 [16, 16, 3, 3]
0	0x3de3081d	0.11085532
1	0x3e0be419	0.13661231
2	0xbf13fd03	-0.5780794
3	0xbd9cb26d	-0.076512195
4	0xbf402b2b	-0.7506587
5	0xbebb49b5	-0.36579672
6	0x3eed1e47	0.46312162
7	0xbed6ef1f	-0.4197931
8	0xbf626452	-0.88434327
9	0xbf2aea41	-0.66763693
10	0x3ea0b388	0.3138697
11	0x3e7909f3	0.24320202
12	0x3e770bfb	0.24125664
13	0x3f5d8e1d	0.8654497
14	0xbdb41ee3	-0.08794954
15	0x3e1acad1	0.15116431
16	0x3f3bf1b9	0.73415715
17	0x3eb3d765	0.3512527
18	0x3d42ff9c	0.04760705
19	0x3ddec28b	0.1087695
20	0xbdbce6c4	-0.092237025
21	0xbda6de27	-0.08147841
22	0xbcf323f9	-0.029680239
23	0xbf2056f8	-0.62632704
24	0x3e1ece1a	0.15508309
25	0x3ea3b547	0.3197424
26	0xbf2722a7	-0.6528725
27	0xbf8d8809	-1.105714
28	0xbfc73e6d	-1.5565926
29	0xbfab8a41	-1.3401567
30	0xbc27aaee	-0.010233624
31	0x3df17655	0.11790148
32	0xbf21a8c0	-0.6314812
33	0x3e12efcc	0.14349288
34	0x3e8029ee	0.2503199
35	0xbee35960	-0.44404125
36	0x3f7439e2	0.9540082
37	0xbed5d422	-0.41763407
38	0xbf8b2011	-1.0869161
39	0x3f2ca7ff	0.6744384
40	0xbecbb97a	-0.39789945
41	0xbf8c6b54	-1.0970254
42	0xbeb26026	-0.3483898
43	0xbf4aa548	-0.7915845
44	0xbf052d45	-0.520222
45	0xbd4bcb48	-0.04975441
46	0xbf05399e	-0.5204104
47	0xbf9b6c85	-1.2142493
48	0xbee9ceea	-0.45665675
49	0xbeef5cfd	-0.46750632
50	0xbf145f4f	-0.5795793
51	0xbf2d988e	-0.67810905
52	0xbfa16408	-1.2608652
53	0xbf9185c2	-1.1368945
54	0xbe95723e	-0.29188722
55	0xbe3df1ca	-0.18549266
56	0xbf809cd3	-1.0047859
57	0x3e135c04	0.1439057
58	0xbd968c73	-0.07351007
59	0xbf7ce452	-0.9878589
60	0x3f679b7e	0.9047164
61	0x3e7bc8e0	0.24588346
62	0xbe890170	-0.2675891
63	0x3f5df3cd	0.86700135
64	0x3d8a5454	0.067543656
65	0xbea36c42	-0.31918532
66	0x3f9cc959	1.2248946
67	0xbec4d875	-0.38446394
68	0xbe50c3f3	-0.20387249
69	0x3fefd893	1.8737968
70	0x3f6369da	0.8883339
71	0x3d86ac5a	0.06575842
72	0x3f53633b	0.8257329
73	0x3f7831fd	0.96951276
74	0xc01ebbe3	-2.4802177
75	0x3fdd8535	1.7306277
76	0x3f820534	1.0157838
77	0xc051073f	-3.2660673
78	0x3fc09f27	1.504857
79	0x3f8695b9	1.0514442
80	0xc0388596	-2.8831534
81	0x3f945243	1.1587604
82	0x3e1695bb	0.14705555
83	0x3f23f075	0.64038783
84	0x3f475bc6	0.7787441
85	0x3eebabca	0.46029502
86	0x3f30f6d1	0.6912661
87	0x3fcbfb75	1.5936114
88	0xbda2494c	-0.079241365
89	0xbf32e9a8	-0.6988778
90	0xbf01548e	-0.50519645
91	0xbc721ed4	-0.014777858
92	0x3f48f24d	0.7849472
93	0xbf0a3ceb	-0.53999203
94	0x3dbfd7cf	0.09367334
95	0x3f6c5542	0.92317593
96	0x3f1d2994	0.6139157
97	0x3f73afd9	0.951902
98	0x3f91ecae	1.1400354
99	0x3f794851	0.9737597
100	0x3e93d897	0.28876182
101	0xbffdba3b	-1.9822458
102	0x3fce8f90	1.6137562
103	0xbe660e67	-0.22466432
104	0xbfccbad2	-1.5994513
105	0x3fd3f469	1.6558963
106	0x3eacd69f	0.33757493
107	0xbf812329	-1.0088855
108	0xbf13e98d	-0.57778245
109	0xbf4c9f25	-0.79930335
110	0xbf69d489	-0.9133993
111	0xbf0882ef	-0.5332479
112	0xbe01ddea	-0.1268231
113	0xbeca3259	-0.39491537
114	0xbf366dbd	-0.712612
115	0xbf68f882	-0.9100419
116	0xbf4b6d4a	-0.79463637
117	0x3fc62de3	1.5482754
118	0x3ead4da4	0.33848298
119	0xbec6e9c8	-0.38850236
120	0x3f3e67d6	0.7437719
121	0x3fc29b9b	1.5203737
122	0x3eaaaa2f	0.33332965
123	0xbd7306b7	-0.059332576
124	0x3eeaffb3	0.45898208
125	0xbdd2aea9	-0.1028722
126	0x3f060eb3	0.5236618
127	0x3f9571ce	1.1675355
128	0x3e39e40d	0.181534
129	0x3e9a655b	0.30155453
130	0x3e9bd5c7	0.30436537
131	0x3bf95e62	0.0076101283
132	0xbeab0216	-0.3340003
133	0x3f3f770d	0.7479103
134	0x3f53218e	0.82473075
135	0xbcc3638d	-0.02385118
136	0x3eea1ef7	0.4572675
137	0xbfa04807	-1.2521981
138	0xbf0e8598	-0.556726
139	0x3ecfa53f	0.4055576
140	0xbf1353eb	-0.57549924
141	0xbf2d0c99	-0.6759735
142	0x3e5c415d	0.21509309
143	0xbe2c6e08	-0.16838849
144	0xbfb9a01a	-1.4501984
145	0xbba9ae99	-0.0051782844
146	0x3f3b29bb	0.7311055
147	0xbfc94e36	-1.5726993
148	0xbfa3a0a2	-1.2783396
149	0x3f6c921c	0.92410445
150	0xbfc2226c	-1.5166755
151	0xbf841851	-1.0319921
152	0x3dfa6924	0.12227085
153	0x3f6136da	0.8797432
154	0x3f12172a	0.57066596
155	0xbeb6e473	-0.35721168
156	0x3fb86b21	1.4407693
157	0x3fb455d3	1.4088691
158	0xbdbeb640	-0.09312105
159	0x3f8ef967	1.1169862
160	0x3fa1b95c	1.2634692
161	0x3e5bbfb5	0.21459849
162	0xbf2c0de4	-0.67208695
163	0xbef9aac4	-0.48763096
164	0xbd584315	-0.05279835
165	0xbe981ae5	-0.2970802
166	0xbe21a21e	-0.15784499
167	0x3ed9d042	0.425417
168	0xbe75b38c	-0.23994273
169	0x3e8054eb	0.25064787
170	0x3ec09304	0.37612164
171	0xbe34b4df	-0.17647122
172	0xbf1ba391	-0.6079646
173	0xbfbb923d	-1.4654003
174	0x3f27591c	0.65370345
175	0x3ee1f44f	0.44131705
176	0xbf98f531	-1.1949826
177	0x3ee4d3c7	0.44692823
178	0xbe779707	-0.24178706
179	0xbf9e39f3	-1.2361435
180	0xbfbb5663	-1.4635738
181	0xbef14e8d	-0.47130242
182	0x3f0cd816	0.5501722
183	0xbf9d672b	-1.2297109
184	0xbbab988e	-0.005236692
185	0x3ed26df5	0.41099516
186	0xbf6a9e7a	-0.91648066
187	0x3d68c365	0.056826968
188	0x3f9fa721	1.2472879
189	0xbec47360	-0.38369274
190	0x3f661073	0.8986885
191	0x3f8da573	1.1066116
192	0xbf9e3bfd	-1.2362057
193	0x3f834e8f	1.0258349
194	0x40053e57	2.08193
195	0xc00338bb	-2.0503376
196	0xbea2b609	-0.31779507
197	0x3f5184c5	0.81843215
198	0xbd66e278	-0.05636832
199	0x3d974b1c	0.07387373
200	0x3f8c91f5	1.0982043
201	0xbf3f6b06	-0.7477268
202	0xbedbd94e	-0.42939228
203	0x3f6ef05a	0.933355
204	0xbf8c6a3e	-1.0969923
205	0xbdb490da	-0.08816691
206	0x3ec4e218	0.38453746
207	0xbfd07f6c	-1.6288886
208	0xbfa1d24f	-1.2642306
209	0x3e0698c6	0.13144216
210	0xbfaf30cb	-1.3686765
211	0xc026462d	-2.5980332
212	0xbdfcd238	-0.123447835
213	0xbf81e6a0	-1.0148506
214	0xbfb82de9	-1.4389011
215	0xbf612f6c	-0.87962985
216	0xbfbb978e	-1.4655626
217	0xbb2cd6cb	-0.0026373144
218	0xbf34ca0e	-0.7062081
219	0x3ef1d37c	0.47231662
220	0xbe1a8220	-0.15088701
221	0xbfe57933	-1.7927612
222	0xbeab39ab	-0.33442435
223	0xbef00902	-0.46881872
224	0xbfedda55	-1.8582255
225	0xbca64268	-0.020295337
226	0xbf86cab2	-1.0530608
227	0x3ea77d4f	0.3271279
228	0xbf274a65	-0.6534789
229	0x3f0f3ae5	0.5594924
230	0x3f87f61c	1.0621982
231	0xbf4d4b86	-0.80193365
232	0x3e10dd94	0.14147025
233	0xbf93ed50	-1.1556797
234	0xbff5c519	-1.9200774
235	0xbfa12209	-1.2588512
236	0x3f7bddd1	0.9838534
237	0xbf5aef37	-0.8552126
238	0xbfc9f3ff	-1.5777587
239	0xbee200c2	-0.44141203
240	0xbf22d376	-0.63603914
241	0xbf4093ae	-0.7522534
242	0xbf8ab55e	-1.0836599
243	0x3e2cd6b5	0.16878779
244	0x3d299ddb	0.04141031
245	0xbfc759f8	-1.5574331
246	0x3f33bf67	0.7021393
247	0xbf34d6ec	-0.70640445
248	0xbff9b883	-1.9509434
249	0xbe0f52c4	-0.13996416
250	0xbf1425c5	-0.5787013
251	0xbfca3343	-1.5796894
252	0x3f21933b	0.6311528
253	0x3eb76879	0.35821894
254	0xbec6ad93	-0.38804302
255	0x3f0411cc	0.51589656

layer1.1.bn1.weight f4 [16]
0	0x3fc8c85a	1.5686142
1	0x40047773	2.0697906
2	0x400b467d	2.1761773
3	0x3fedf3af	1.8589991
4	0x3fa669c2	1.3001025
5	0x40083d90	2.1287575
6	0x3f6d8f3e	0.92796695
7	0x3f9937d0	1.1970158
8	0x3ff5aeb9	1.9193946
9	0x3fc5325e	1.5405996
10	0x3fb8555c	1.440105
11	0x3fbf44b0	1.4942837
12	0x3f969957	1.1765546
13	0x401985df	2.3987958
14	0x4011be1e	2.2772288
15	0x3f665c1b	0.8998429

layer1.1.bn1.bias f4 [16]
0	0xbed69949	-0.41913822
1	0xbf15e55b	-0.58553094
2	0xbf4b9338	-0.79521513
3	0xbed3039a	-0.41213685
4	0xbf94184b	-1.1569914
5	0xbf12adbd	-0.57296354
6	0xbfa5a31e	-1.2940404
7	0xbede1ad7	-0.43379852
8	0xbf02c6b7	-0.51084465
9	0xbe935e59	-0.2878292
10	0xbf19a99a	-0.60024416
11	0x3d1e1dbb	0.038602572
12	0xbf38366c	-0.7195804
13	0xbdf3ae73	-0.11898508
14	0xbf600592	-0.875085
15	0xbf01c1fc	-0.5068662

layer1.1.bn1.running_mean f4 [16]
0	0x414282dd	12.156949
1	0xc2524fdb	-52.577984
2	0xc1ea4aa3	-29.286444
3	0xc21f2a83	-39.791515
4	0x40f33f1a	7.601453
5	0xc1af8a65	-21.942575
6	0x417e2de6	15.886206
7	0xc20a3528	-34.55191
8	0xc228aa09	-42.16605
9	0xc1ec8257	-29.563643
10	0xc23d0418	-47.253998
11	0xc20c0158	-35.001312
12	0xc1b713ed	-22.88473
13	0xc23ee868	-47.72696
14	0xc22db37a	-43.42527
15	0xc19dff46	-19.749645

layer1.1.bn1.running_var f4 [16]
0	0x4434722d	721.784
1	0x4504417c	2116.0928
2	0x44d6cecc	1718.4624
3	0x44f882d2	1988.0881
4	0x44331cc7	716.44965
5	0x44aa5af3	1362.8422
6	0x43d43710	424.43018
7	0x4479609f	997.5097
8	0x449712c4	1208.5864
9	0x449f7617	1275.6903
10	0x44aea56b	1397.1693
11	0x448deacf	1135.3378
12	0x447585bf	982.0898
13	0x44bb8ca0	1500.3945
14	0x44abd802	1374.7502
15	0x447d062d	1012.0965

layer1.1.conv2.weight f4 [16, 16, 3, 3]
0	0xbf1625e0	-0.5865154
1	0xbe96d556	-0.29459637
2	0xbe3a3317	-0.18183552
3	0x3eb4a1f7	0.3527982
4	0xbebcbd68	-0.36863256
5	0xbf5a9b93	-0.8539364
6	0x3f3db1f1	0.7409964
7	0x3e802e98	0.25035548
8	0xbf856f8c	-1.0424666
9	0x3d87be1d	0.06628058
10	0xbf99509f	-1.1977729
11	0xbf1032a7	-0.5632729
12	0x3fef017e	1.867233
13	0x3e33ca45	0.17557628
14	0xbff681f2	-1.9258406
15	0x3fd1b240	1.6382523
16	0x3fb432b5	1.4077975
17	0xbee01db5	-0.43772665
18	0xbf31263d	-0.6919897
19	0xbf8bbb6f	-1.0916575
20	0xbefdfa75	-0.49605146
21	0xbf664dfb	-0.8996274
22	0xbf09a009	-0.5375982
23	0xbf2271f3	-0.6345512
24	0xbfbe14a9	-1.4850055
25	0x3f0dd5ad	0.5540417
26	0xbec6e9a9	-0.38850144
27	0x3e2daa45	0.16959484
28	0x3fa96f49	1.3237087
29	0x3fdb27ce	1.7121522
30	0xbf8fec06	-1.1243904
31	0x3e9b3227	0.303117
32	0x3fdf6cda	1.7455094
33	0xbf801506	-1.0006416
34	0xbebdcb71	-0.37069276
35	0x3e21d7a7	0.15804921
36	0x3f683d65	0.9071868
37	0xbf9e8fa5	-1.2387587
38	0xbf9ee32e	-1.241308
39	0x3f9656e0	1.1745262
40	0x3ecf4c62	0.40487963
41	0xbf761dc6	-0.9613918
42	0xbf099d39	-0.5375553
43	0x3eeb86ea	0.4600137
44	0x3f52202d	0.82080346
45	0x3d4ef0e6	0.050522707
46	0xbeeb4996	-0.4595458
47	0x3e1531eb	0.14569823
48	0x3e9e2303	0.30886087
49	0xbdff11ed	-0.12454591
50	0x3eaab940	0.3334446
51	0x3ee10e6e	0.4395632
52	0xbe1f3808	-0.15548718
53	0xbfa9c880	-1.3264313
54	0xbf9b2e32	-1.2123473
55	0xbf71f37a	-0.9451214
56	0x3ddb07fa	0.10694881
57	0xbf98c6a8	-1.1935625
58	0xbfa8714f	-1.3159579
59	0xbe9b9f91	-0.30395177
60	0xbfc90ff0	-1.5707989
61	0xc015d7d3	-2.3412979
62	0xbfb48837	-1.410407
63	0xbe4ea6ee	-0.20180866
64	0xbf924ea2	-1.1430247
65	0xbfe15788	-1.7604837
66	0x3fd8349b	1.6891054
67	0x3ecb3ee7	0.39696428
68	0xbf97876b	-1.1838201
69	0xbf233a56	-0.6376089
70	0x3ee97e42	0.4560414
71	0x3f1e7b43	0.6190683
72	0xbf910b1b	-1.1331514
73	0xbf2c6dc4	-0.6735499
74	0x3fa56d9a	1.2924073
75	0x3e461d68	0.19347155
76	0xbf8d5860	-1.1042595
77	0xbe5211c2	-0.20514587
78	0xbef384d7	-0.47562286
79	0xbf5a3871	-0.8524237
80	0xbe55b109	-0.20868315
81	0xbeece9df	-0.4627218
82	0x3f1056d5	0.56382495
83	0xbf2416b6	-0.64097154
84	0x3f046692	0.5171901
85	0x3eb6a46c	0.3567232
86	0xbf5e7f37	-0.86912864
87	0x3f0679ce	0.5252961
88	0x3f465257	0.7746939
89	0x3bf3748f	0.0074296664
90	0xbe9b3c9d	-0.30319682
91	0xbf5ae693	-0.8550808
92	0xbf41ef5d	-0.75755864
93	0x3ebc389e	0.36761945
94	0x3e04196f	0.12900327
95	0xbf90a62a	-1.1300709
96	0x3f54578e	0.829461
97	0xbe8fa501	-0.28055575
98	0xbed08187	-0.40723822
99	0x3e77e7bf	0.24209498
100	0xbfb6ba71	-1.4275647
101	0xbf9f7335	-1.2457033
102	0x3fbaa156	1.4580486
103	0x3f423965	0.7586883
104	0xc0202b05	-2.5026257
105	0x3f50cdf1	0.8156424
106	0x3fd3e304	1.6553655
107	0xbf314a22	-0.6925374
108	0xc00a9d91	-2.165867
109	0xbe1a15ff	-0.15047453
110	0x3f68a73a	0.9088017
111	0xbf43e97c	-0.76528144
112	0xbfb7c139	-1.4355842
113	0xbf763167	-0.9616913
114	0xbfa5bf01	-1.2948915
115	0xbf992399	-1.1963989
116	0xbef18100	-0.47168732
117	0xbf7bf6bc	-0.9842336
118	0xbf88cf76	-1.0688312
119	0x3fd376f7	1.652068
120	0x3ea236e7	0.31682512
121	0xbfa3ed37	-1.2806767
122	0xbf206d29	-0.62666565
123	0xbf552eac	-0.8327434
124	0x3e9b39e4	0.30317605
125	0xbee7049e	-0.4512071
126	0xbfb8cb0d	-1.4436966
127	0x3db376de	0.087629065
128	0x3e7f7ba0	0.24949503
129	0xbe298568	-0.16554797
130	0xbf1b79a3	-0.6073248
131	0xbdb73ab3	-0.08946743
132	0x3e3ea1ea	0.18616453
133	0xbf80b2be	-1.0054548
134	0x3ed7606f	0.4206576
135	0xbf904c00	-1.1273193
136	0xbfbaa37d	-1.4581143
137	0xbe84802f	-0.25879046
138	0xbafed0f1	-0.0019440932
139	0xbe641334	-0.2227295
140	0xbe6ab83a	-0.2292184
141	0xbf475845	-0.77869064
142	0x3dfce386	0.12348084
143	0xbdb091e2	-0.08621575
144	0xbfcdf52e	-1.6090448
145	0xbf99fa53	-1.2029518
146	0xbf29ba93	-0.66300315
147	0xc016bba4	-2.3552027
148	0xbfdc964c	-1.7233367
149	0xbfb4fbed	-1.4139382
150	0xbf023e8c	-0.5087669
151	0xbf1c7c6a	-0.6112734
152	0xbf1f359c	-0.62191176
153	0xbfaa87da	-1.3322709
154	0xbf9c8f6a	-1.2231266
155	0xbf244771	-0.6417151
156	0xbf8237d5	-1.0173289
157	0xbed4f0c7	-0.4158995
158	0xbe6089c3	-0.21927552
159	0xbf9cf2c0	-1.2261581
160	0xbf2a57ef	-0.66540426
161	0xbec0ad17	-0.37632057
162	0xbf5027f0	-0.8131094
163	0x3c25b342	0.010113539
164	0xbfb78f79	-1.4340659
165	0xbfa5ff77	-1.2968587
166	0xbf4aee7c	-0.7927015
167	0xc008c939	-2.1372817
168	0xbfe2a10b	-1.7705396
169	0x3e2fadc9	0.17156138
170	0xbf88f55e	-1.069988
171	0x3fc24d69	1.5179874
172	0x3fcef431	1.6168271
173	0x400e86dd	2.2269814
174	0x3fb3832b	1.4024404
175	0x3f80f5e3	1.0075039
176	0x3fe06991	1.7532216
177	0x3ea4235f	0.32058236
178	0x3e5c4af9	0.21512975
179	0x3f00b818	0.50280905
180	0x3f73d05e	0.9523982
181	0x3f5669f1	0.83755404
182	0x3ecbb6d6	0.3978793
183	0x3f341e95	0.70359164
184	0x3f222c57	0.6334891
185	0x3eb5d3ae	0.3551306
186	0x3f26aa49	0.65103585
187	0x3f600448	0.8750653
188	0x3f64c495	0.8936246
189	0xbf99e529	-1.2023059
190	0x3bb77492	0.005598613
191	0x3f6e5b62	0.9310819
192	0xbecc6427	-0.3992016
193	0xbeda7c12	-0.42672783
194	0x3d41b019	0.04728708
195	0x3ce44727	0.02786596
196	0xbf863e47	-1.0487756
197	0x3d941c2c	0.07231936
198	0x3ed03f7b	0.40673432
199	0x3ee8390f	0.45356032
200	0x3ee9042b	0.45510992
201	0x3e2ccc4a	0.16874805
202	0x3eb7bfc4	0.35888493
203	0x3e8acba0	0.2710848
204	0x3ed612fd	0.41811362
205	0x3f33fc63	0.70306987
206	0x3f66a0de	0.90089214
207	0x3eca01fe	0.39454645
208	0x3f3b69f0	0.7320852
209	0x3f6d460f	0.92685026
210	0x3ee14510	0.43998003
211	0x3f41d655	0.7571767
212	0x3f1ad29b	0.6047761
213	0x3e48b93a	0.19601908
214	0xbe89eca9	-0.2693837
215	0x3bec7cf6	0.007217045
216	0x3dbd5a23	0.09245708
217	0xbf053985	-0.5204089
218	0xbf6aa89c	-0.9166353
219	0xbf00d968	-0.50331736
220	0x3daf93d8	0.08573121
221	0x3e157c68	0.14598238
222	0xbead2fd9	-0.33825567
223	0x3d67b09b	0.05656491
224	0x3f450fe0	0.7697735
225	0xc010f07e	-2.2646785
226	0xbfd675fd	-1.6754757
227	0xbf9c8ff3	-1.223143
228	0xbfd65135	-1.6743532
229	0xbf8ee47f	-1.1163481
230	0xbf812ea9	-1.0092365
231	0xbf077e51	-0.5292712
232	0xbf946510	-1.1593342
233	0xbf3ae625	-0.7300742
234	0xbf6a2022	-0.9145528
235	0xbfd1cba6	-1.6390274
236	0xbfc03fcc	-1.5019469
237	0xbf49be1d	-0.78805715
238	0xbf2e06f9	-0.6797939
239	0x3dfa1a1b	0.122120105
240	0x3f4ce2fc	0.8003385
241	0x3f553789	0.83287865
242	0x3f9badb8	1.216239
243	0x3eaea0c6	0.34107035
244	0x3f3bc7d7	0.73351806
245	0x3f09ab6f	0.5377721
246	0xbed39aab	-0.4132894
247	0x3ed4f3e0	0.41592312
248	0x3edc6d78	0.43052268
249	0xbf4e7311	-0.8064433
250	0xbb162eb2	-0.0022916016
251	0x3f1d3830	0.6141386
252	0x3f4eff9f	0.80858797
253	0x3e1158f0	0.14194083
254	0xbe45937b	-0.1929454
255	0x3f195ac0	0.599041

layer1.1.bn2.weight f4 [16]
0	0x3f74125d	0.9534052
1	0x3f3be873	0.73401564
2	0x3ede5466	0.43423766
3	0x3eaebda1	0.3412905
4	0x3fa13642	1.2594683
5	0x3f86c3d1	1.0528508
6	0x3e74c3e4	0.23902851
7	0x3f41a55b	0.7564294
8	0x3fba9914	1.4577966
9	0x3faba486	1.3409584
10	0x3f470705	0.77745086
11	0x3f1626b5	0.5865281
12	0x3fac2d4e	1.3451326
13	0x3f627ab0	0.88468456
14	0x3f8cbcec	1.0995154
15	0x3ed7befc	0.42137897

layer1.1.bn2.bias f4 [16]
0	0xbf58988b	-0.8460776
1	0xbc63ce56	-0.013904175
2	0x3f0b211f	0.54347414
3	0xbe8ae0e6	-0.2712471
4	0xbed05b97	-0.40694878
5	0xbf0cf6f4	-0.5506432
6	0x3dfc0998	0.12306517
7	0x3e88a492	0.26688057
8	0xc021cf33	-2.5282714
9	0xbfabec53	-1.3431495
10	0xbf98dd60	-1.1942558
11	0x3e8fab63	0.28060445
12	0xbdef5769	-0.11686594
13	0xbd509783	-0.050925743
14	0xbfe6f4d0	-1.8043461
15	0xbf919ca2	-1.1375926

layer1.1.bn2.running_mean f4 [16]
0	0xc118dcce	-9.553907
1	0xc1252138	-10.32061
2	0xc18e0229	-17.751055
3	0x405bb609	3.4329855
4	0xc09f858e	-4.985053
5	0x414382fc	12.219479
6	0xc15a2497	-13.633933
7	0xc1553d0c	-13.327404
8	0x402934b7	2.6438425
9	0xc09a1c52	-4.815957
10	0x3fe82626	1.8136642
11	0x4162d163	14.17612
12	0xc1428d09	-12.159432
13	0xc0816185	-4.0431542
14	0x402d2451	2.7053416
15	0x407a9dbf	3.915878

layer1.1.bn2.running_var f4 [16]
0	0x431c2025	156.12556
1	0x4358722d	216.446
2	0x434d53ce	205.32736
3	0x433b0460	187.01709
4	0x435d2f59	221.18495
5	0x43005889	128.34584
6	0x43006607	128.39854
7	0x432a4d7e	170.3027
8	0x42e8cefb	116.40426
9	0x42f0b02a	120.34407
10	0x431e94ab	158.58073
11	0x4361f19c	225.94379
12	0x43414fc3	193.31157
13	0x430b2205	139.13289
14	0x42e9ceee	116.90416
15	0x4299f09c	76.96994

layer2.0.conv1.weight f4 [32, 16, 3, 3]
0	0xbec72abe	-0.38899797
1	0xbf7f160b	-0.9964301
2	0xbf76fac0	-0.96476364
3	0xbf6183ac	-0.8809154
4	0xbf86ad01	-1.0521547
5	0xbfd103c7	-1.6329278
6	0xbc3f4e40	-0.011676371
7	0xbffb58ca	-1.9636471
8	0x3f8bceb6	1.0922458
9	0x3f497126	0.78688276
10	0x3f7be47b	0.9839551
11	0xbc87c3a7	-0.016572786
12	0xbef56ca6	-0.47934455
13	0xbf04b8d1	-0.5184451
14	0xbec1bd07	-0.3783953
15	0xbe17898e	-0.14798567
16	0x3d75133d	0.0598328
17	0x3ef253b2	0.4732948
18	0xbe49f6e1	-0.19723083
19	0x3ebed641	0.37272838
20	0x3f303f1e	0.6884631
21	0xbfac8e1a	-1.3480866
22	0xbf5d9c9b	-0.86567086
23	0xbee44314	-0.44582427
24	0xc019c0cc	-2.4023924
25	0xbfcf23fd	-1.6182858
26	0xbf249c6d	-0.64301187
27	0xbe17ed07	-0.14836513
28	0xbf4cd7fd	-0.8001707
29	0xbf65e858	-0.89807653
30	0xbfd0d04d	-1.6313568
31	0xbfd92efa	-1.6967461
32	0xbf27b140	-0.6550484
33	0x3c296b29	0.01034049
34	0xbd63db28	-0.055628926
35	0x3fbccb7b	1.4749597
36	0xbe710879	-0.23538388
37	0xbedcefc7	-0.43151686
38	0xbfdae751	-1.7101842
39	0xc0045442	-2.0676427
40	0xbf2b9b8f	-0.6703424
41	0xc01b2c76	-2.4245887
42	0xbf35e505	-0.7105258
43	0x3f940580	1.1564178
44	0xbefd6bcf	-0.49496314
45	0xbc81b8be	-0.015835162
46	0xbcd2ae29	-0.025717812
47	0xbf805a51	-1.0027562
48	0xbf59b55d	-0.85042363
49	0xbed7bcc6	-0.4213621
50	0xbdd48315	-0.103765644
51	0xbf9226b8	-1.1418066
52	0x3e95a439	0.29226854
53	0x3fc0dc8c	1.5067306
54	0x3eeeb529	0.4662259
55	0x3e190a3d	0.14945312
56	0x3ef0bcec	0.47019136
57	0x3dae05a6	0.08497171
58	0x3f28d667	0.6595215
59	0xbe3f0a4e	-0.18656275
60	0x3ee4b571	0.4466968
61	0x3f49586a	0.78650534
62	0x3ee9f4aa	0.45694476
63	0xbec59381	-0.385891
64	0xbeb21567	-0.34781954
65	0x3ebff65d	0.37492648
66	0x3d30a952	0.043130226
67	0x3e02f7e5	0.12789877
68	0x3e6950a2	0.22784665
69	0x3e6a37c7	0.2287284
70	0x3fb66dae	1.4252222
71	0x3da97426	0.08274107
72	0xbdf6956c	-0.12040219
73	0xbfd67ed8	-1.675746
74	0xbfc26db9	-1.5189735
75	0xbfd49c61	-1.6610223
76	0xbff261ca	-1.8936093
77	0xc0023999	-2.0347655
78	0xbf1f5986	-0.62245977
79	0x3cf83e37	0.030303104
80	0x3f1f141d	0.62140065
81	0xbf989ff6	-1.1923816
82	0x3f54f8dd	0.83192235
83	0xbf28c068	-0.6591859
84	0x3e08cb04	0.13358694
85	0x3f583108	0.84449816
86	0xbe04a8b0	-0.12954974
87	0x3ea3eb08	0.32015252
88	0xbfe6260c	-1.7980361
89	0x3f807e11	1.0038472
90	0xbfc6e644	-1.5539021
91	0xbf783a1d	-0.96963674
92	0xbf6bfa36	-0.92178667
93	0xbfe90364	-1.820416
94	0xbf5ce7de	-0.862913
95	0xbeb9339b	-0.36172184
96	0xbf362394	-0.7114804
97	0x3ea83c76	0.32858628
98	0x3ec71b33	0.3888794
99	0xbf033d13	-0.51265067
100	0xbf90145f	-1.1256217
101	0xbedcaa3b	-0.43098626
102	0x3e6ea729	0.23305954
103	0x3f038206	0.51370275
104	0xbe636019	-0.22204627
105	0x3fb10619	1.3829986
106	0x3fe10ca6	1.7581985
107	0x3f2ca6c0	0.6744194
108	0xbee5d2f3	-0.44887504
109	0xbdea807f	-0.1145029
110	0xbeaa536f	-0.3326678
111	0x3e0ed18c	0.13947123
112	0xbf05fdb8	-0.5234027
113	0x3e5152c4	0.20441729
114	0xbec54a70	-0.38533354
115	0xbdc2281e	-0.09480308
116	0xbeb57c21	-0.35446265
117	0xbf5e30e6	-0.86793363
118	0xbf4287ab	-0.7598826
119	0xbf97f56f	-1.1871775
120	0xbf310037	-0.6914095
121	0xbeb2709b	-0.34851536
122	0xbe7cb335	-0.24677737
123	0x3ecbb928	0.397897
124	0x3f47a70b	0.7798926
125	0x3fbb0fd1	1.4614202
126	0x3e882766	0.2659256
127	0x3e0ef5f8	0.13961017
128	0x3fa2ed23	1.2728618
129	0x3fc7745e	1.5582387
130	0x3fc3436b	1.5254949
131	0x4002ca24	2.0435877
132	0x3f0f4abe	0.5597342
133	0x3f532a35	0.8248628
134	0xbdb40bca	-0.08791311
135	0xbda5fcfe	-0.08104895
136	0x3e280bb0	0.16410708
137	0x3f9ed298	1.2408018
138	0x3f21a451	0.6314135
139	0x3fa71ba2	1.3055308
140	0x3f5ddce9	0.8666521
141	0x3f2158f6	0.6302637
142	0x40251ebb	2.5800006
143	0x3fb77d66	1.4335144
144	0xbfd7128a	-1.6802533
145	0xbf03a282	-0.5141984
146	0xbeed7765	-0.46380153
147	0xbf4b4ec0	-0.7941704
148	0xbf9d34af	-1.2281703
149	0xbfa5f0e2	-1.2964137
150	0xbf132a8d	-0.574868
151	0xbf42a1df	-0.76028246
152	0x3ef88ec1	0.48546413
153	0xbf217fb8	-0.6308551
154	0xbf809c02	-1.004761
155	0xbf06d477	-0.52667946
156	0xbf252646	-0.64511526
157	0xbf048819	-0.5177017
158	0xbf07a11b	-0.529802
159	0x3dc6f0a3	0.097138666
160	0x3e0cc655	0.13747533
161	0xbe5ef17d	-0.21771808
162	0xbe22e2bc	-0.15906805
163	0xbe9d5a9f	-0.307332
164	0xbd7cfd94	-0.06176527
165	0x3e0f223a	0.139779
166	0x3ed240d0	0.41065073
167	0x3f1002ec	0.5625446
168	0xbeed624a	-0.4636405
169	0xbe432b86	-0.19059572
170	0x3ec5f77b	0.38665375
171	0x3dcdcd9c	0.100489825
172	0x3f1ea975	0.6197732
173	0x3fabfe71	1.3437024
174	0xbe89cc6f	-0.26913783
175	0x3f128a08	0.5724187
176	0x3f146b14	0.5797589
177	0xbfaceff9	-1.3510734
178	0xbf6f287e	-0.9342116
179	0xbfa3393f	-1.2751845
180	0xbdd6eb98	-0.10494155
181	0xbfa45ef5	-1.2841479
182	0x3f4ca963	0.79945964
183	0xbf80862e	-1.0040948
184	0xc006c2c3	-2.1056373
185	0x3d14a253	0.036287617
186	0xc01e4a7c	-2.4732962
187	0xc01b2ff9	-2.424803
188	0xbfbdf2d5	-1.4839731
189	0x3eba25b0	0.36356878
190	0xbe5cef02	-0.21575549
191	0x3edb1cb2	0.4279533
192	0xbe04f564	-0.12984234
193	0xbf56f2ce	-0.8396424
194	0xbc87b930	-0.016567796
195	0xbeec8ea1	-0.46202567
196	0xbf893a0e	-1.0720842
197	0x3e916d83	0.28403863
198	0xbea9c3ed	-0.33157292
199	0x3d8dc10e	0.06921588
200	0xbf1103bd	-0.5664633
201	0x3e0d16fc	0.13778299
202	0x3b84c774	0.004052097
203	0xbeb94145	-0.3618261
204	0x3f387839	0.72058445
205	0x3f56edf4	0.8395684
206	0x3f3735d0	0.71566486
207	0xbf1f3286	-0.6218647
208	0xbe81ee76	-0.25377244
209	0xbf721f67	-0.94579166
210	0xbfe7824b	-1.8086637
211	0xbf7805f1	-0.96884066
212	0xbfc8a7c1	-1.5676194
213	0xbfe272bb	-1.7691263
214	0xbc9ec49f	-0.019380866
215	0xbe239d08	-0.15977871
216	0xbf2ad0da	-0.6672493
217	0xbf65bd02	-0.8974153
218	0xbe7391fe	-0.2378616
219	0xbe8882e6	-0.26662368
220	0xbf345ecd	-0.70457155
221	0xbe6b12e6	-0.22956428
222	0xbf480545	-0.7813304
223	0xc01bfeb0	-2.43742
224	0x3f1314f5	0.5745385
225	0x3f7ec593	0.99520224
226	0x3f1e59dd	0.6185587
227	0x3e52ab46	0.20573148
228	0x3f0c93c6	0.54912984
229	0x3e952e60	0.29136944
230	0x3e97aed7	0.2962558
231	0xbe0c7fbd	-0.13720603
232	0xbf5a5489	-0.8528524
233	0xbf914706	-1.13498
234	0x3d9a445a	0.07532568
235	0xbe33d445	-0.17561443
236	0x3d2ea094	0.042633608
237	0x3fdc9de9	1.723569
238	0x3fd5df2f	1.6708735
239	0x3fb4f4ef	1.4137248
240	0x3f2836ce	0.65708625
241	0x3f33d8d7	0.70252746
242	0x3f1320dd	0.5747202
243	0xbf226493	-0.63434714
244	0x3b96b71a	0.004599464
245	0x3fb3aefd	1.4037777
246	0xc021fbaf	-2.5309865
247	0xbfa75464	-1.3072629
248	0xbf890643	-1.0705036
249	0xbf8e4acd	-1.1116577
250	0xbf94f5cb	-1.163751
251	0xbf3d6a95	-0.73990756
252	0x3e9ffbe0	0.31246853
253	0xbf633cd9	-0.8876472
254	0xbed0ed87	-0.4080622
255	0xbf1c500b	-0.61059636

layer2.0.bn1.weight f4 [32]
0	0x3ffdd90a	1.983186
1	0x3fc9f4ab	1.5777792
2	0x3fb7284c	1.4309173
3	0x3f9b1506	1.2115791
4	0x3f8bea5d	1.0930897
5	0x3fb713f4	1.4302964
6	0x3f979009	1.1840831
7	0x3f8a2731	1.079321
8	0x401ca663	2.4476554
9	0x401659f5	2.3492405
10	0x3fac1e32	1.3446715
11	0x3feed99c	1.8660159
12	0x3fbfddac	1.4989524
13	0x3fa9535b	1.3228563
14	0x3ff6745e	1.9254262
15	0x3feb8092	1.8398612
16	0x3f983cd9	1.1893569
17	0x3fdba261	1.7158929
18	0x3feca1dd	1.8486897
19	0x3fbf0f16	1.4926479
20	0x3fe178be	1.7614973
21	0x3f9bda88	1.2176065
22	0x401ba589	2.4319785
23	0x3ffd35a1	1.9781991
24	0x3fd32cd5	1.6498057
25	0x3f893d7d	1.072189
26	0x3fb3dfd7	1.4052685
27	0x3fdf31ff	1.7437133
28	0x3fc95e0b	1.5731825
29	0x3fc606df	1.5470847
30	0x3fcf0d66	1.6175964
31	0x3fbd0bff	1.4769286

layer2.0.bn1.bias f4 [32]
0	0xbf4e0425	-0.80475074
1	0xbf7b8827	-0.98254627
2	0xbf829d5e	-1.0204275
3	0xbe9d9f71	-0.30785707
4	0xbead2cb6	-0.33823174
5	0xbf63f68b	-0.8904807
6	0x3e38cdfe	0.1804733
7	0xbe9bf0e3	-0.3045722
8	0x3f0350ac	0.5129497
9	0xbf214912	-0.6300212
10	0xbd31b23e	-0.043382876
11	0xbf713fb2	-0.94237816
12	0xbdfff3ea	-0.12497695
13	0xbf3be257	-0.7339224
14	0xbf74ddf2	-0.9565116
15	0x3f063dcf	0.5243806
16	0xbf8a946f	-1.0826548
17	0xbf8668a4	-1.0500684
18	0xbf383a2a	-0.7196375
19	0xbf021093	-0.5080654
20	0xbe85e330	-0.26149893
21	0xbf552d07	-0.8327183
22	0xbec6b1da	-0.38807565
23	0xbd1e09e9	-0.03858367
24	0xbe181ab1	-0.14853932
25	0x3f2d3955	0.67665607
26	0xbd0a3be4	-0.033748522
27	0xbe929ac8	-0.28633714
28	0xbedd839a	-0.43264467
29	0xbe27a6a8	-0.16372168
30	0xbf57bfac	-0.84276843
31	0xbe929885	-0.28631988

layer2.0.bn1.running_mean f4 [32]
0	0xc1421688	-12.130501
1	0xc227e626	-41.974754
2	0xc1c0138e	-24.009548
3	0xc229e861	-42.476933
4	0xc223cbf3	-40.94917
5	0xc22b6441	-42.847904
6	0xc20d0d09	-35.26273
7	0x41a6e9e0	20.864197
8	0xc288b7c7	-68.35894
9	0xc118a0ef	-9.53929
10	0xc0bb6beb	-5.8569236
11	0x405fc50f	3.4964025
12	0xc2064b99	-33.573826
13	0xc10c1979	-8.756219
14	0xc1cfc09b	-25.969046
15	0xc24150cd	-48.328907
16	0x415f016b	13.937846
17	0xc1cc295e	-25.520199
18	0xc205efd0	-33.48419
19	0xc1972b98	-18.896286
20	0x3fa1f817	1.2653836
21	0x42019c3f	32.402584
22	0xc176dca6	-15.428869
23	0xc190e97e	-18.11401
24	0x4207b568	33.927155
25	0xc2312514	-44.28621
26	0xc183098a	-16.379658
27	0xc17047a8	-15.017494
28	0xc23cde4a	-47.21708
29	0xc1b50e9a	-22.63213
30	0x3f00c867	0.5030579
31	0xc263bda7	-56.935207
