pth/model.pth (torch, 502673 bytes, 16 tensors)

conv1.0.weight f4 [6, 3, 3, 3]
0.33752418 0.97820354 0.19231848 -0.108053476 0.23692657 0.21963571 -0.5638504 -1.4601394
-0.25802967 0.604428 1.0571225 0.47907957 -0.07407866 -0.101195574 0.12024821 -1.0917932
-1.9933127 -0.6676762 0.3627257 0.5289036 0.13052645 -0.005322146 0.32778108 -0.010998508
-0.14704484 -0.7371399 -0.21795854 0.58389854 0.8894046 0.74999124 0.74179846 1.0009997
1.2282581 0.12205709 0.6645148 0.577826 -0.6236171 -0.66867983 -0.6702288 -0.94529736
-0.69590265 -0.9400341 -0.53014636 -0.5150648 -0.46625394 -0.058589756 -0.3841866 -0.116340086
-0.27216253 -0.55315065 -0.4561464 0.11272762 -0.07659564 0.26246944 -0.33482754 -0.7969218
-0.68200916 -0.5802945 -0.8946789 -1.0347803 -0.70437366 -0.7538799 -0.62822604 -0.2047494
0.045166757 0.09878763 -0.2559234 0.083975494 0.02328144 -0.30898994 -0.29724792 -0.100368425
1.122118 1.2065307 1.2383041 1.0299492 1.1311371 1.2313279 0.25419617 0.63756675
0.596421 -0.5653835 0.16344097 0.38599843 -2.1966827 0.5610098 1.810698 -1.1984679
-0.13538653 1.1726625 -0.9130484 0.14039831 0.63485193 -2.481795 0.5307955 1.7411798
-1.1713707 -0.32638264 1.2087389 -0.64630634 0.42842838 0.4286857 -1.9979621 0.44744682
1.2419103 -0.77284044 0.09872342 0.9920411 -0.7820414 -0.26920077 0.5247088 -0.31673124
-1.4724679 -0.9364108 -0.007755795 0.20759521 -0.23587462 0.55509263 0.74008495 1.62182
0.851072 -0.25968093 0.35750234 1.0040795 0.8847876 0.97611207 -0.4944588 -0.18654291
0.0885529 -0.38589782 -1.4562911 -0.90832984 -0.30312628 -0.026349645 -0.41370422 -0.8094248
-1.2978225 -0.34582645 -0.775627 0.10862439 0.33709297 1.1735778 1.395176 1.1123143
0.069124475 -0.48342505 -0.26421565 -0.58149517 0.073238604 -0.0014927167 0.76901007 0.86923695
0.62990636 0.3588869 -0.5123238 0.054020505 -0.6869526 0.14988881 0.52272195 0.16671531
0.5967601 0.44395533
00000000: f8cf ac3e 8c6b 7a3f 23ef 443e 244b ddbd
00000010: e19c 723e 2fe8 603e 8058 10bf d9e5 babf
00000020: 771c 84be cbbb 1a3f ca4f 873f eb49 f53e
00000030: 8db6 97bd a03f cfbd b244 f63d e1bf 8bbf
00000040: df24 ffbf d4ec 2abf 2fb7 b93e 3a66 073f
00000050: baa8 053e 6665 aebb ecd2 a73e 1633 34bc
00000060: ec92 16be 33b5 3cbf 8630 5fbe 607a 153f
00000070: 05b0 633f 6dff 3f3f 81e6 3d3f c220 803f
00000080: 9037 9d3f 11f9 f93d a41d 2a3f 68ec 133f
00000090: 5fa5 1fbf 9a2e 2bbf 1d94 2bbf 02ff 71bf
000000a0: ad26 32bf 13a6 70bf acb7 07bf 49db 03bf
000000b0: d6b8 eebe d0fb 6fbd 1bb4 c4be b643 eebd
000000c0: e358 8bbe 489b 0dbf 058c e9be bddd e63d
000000d0: 2dde 9cbd 6562 863e 846e abbe 1103 4cbf
000000e0: 2798 2ebf 2e8e 14bf ad09 65bf ae73 84bf
000000f0: d551 34bf 46fe 40bf 6cd3 20bf d4a9 51be
00000100: c700 393d 2b51 ca3d 6408 83be 58fb ab3d
00000110: b8b8 be3c ee33 9ebe e130 98be f68d cdbd
00000120: 90a1 8f3f 996f 9a3f c080 9e3f 60d5 833f
00000130: 1ac9 903f 279c 9d3f 0026 823e 9337 233f
00000140: 0caf 183f f9bc 10bf 125d 273e 96a1 c53e
00000150: 7396 0cc0 579e 0f3f f4c4 e73f 6567 99bf
00000160: c4a2 0abe ce19 963f 8abd 69bf 93c4 0f3e
00000170: a885 223f bbd5 1ec0 37e2 073f fbde de3f
00000180: 7aef 95bf a01b a7be f5b7 9a3f 5574 25bf
00000190: f75a db3e b17c db3e 39bd ffbf c017 e53e
000001a0: ebf6 9e3f dfd8 45bf 812f ca3d 68f6 7d3f
000001b0: dd33 48bf afd4 89be 5153 063f 992a a2be
000001c0: d479 bcbf 9eb8 6fbf 5324 febb d793 543e
000001d0: 1e89 71be 8d1a 0e3f 3576 3d3f cc97 cf3f
000001e0: dbdf 593f e6f4 84be 8c0a b73e ad85 803f
000001f0: 7181 623f 7be2 793f b429 fdbe 1b05 3fbe
00000200: 395b b53d 6694 c5be bf67 babf 4e88 68bf
00000210: 5e33 9bbe 36db d7bc 0ad1 d3be 7736 4fbf
00000220: 0c1f a6bf 2a10 b1be 7e8f 46bf 7776 de3d
00000230: 7397 ac3e cc37 963f 2195 b23f 5160 8e3f
00000240: 2291 8d3d 7d83 f7be 4647 87be dedc 14bf
00000250: 1ffe 953d 43a7 c3ba d8dd 443f 5086 5e3f
00000260: 8b41 213f 06c0 b73e a727 03bf 9b44 5d3d
00000270: 20dc 2fbf 747c 193e 1bd1 053f 6bb7 2a3e
00000280: 45c5 183f 1d4e e33e

conv1.0.bias f4 [6]
0.8914428 0.2453697 0.086363666 0.11216307 0.086966224 -0.7516202
00000000: 9835 643f 3242 7b3e 6fdf b03d c0b5 e53d
00000010: 591b b23d 2e6a 40bf

conv2.0.weight f4 [16, 6, 3, 3]
0.4481867 0.1801333 0.2480216 -0.2503356 -0.5277413 -0.7076519 0.032650486 0.115156494
0.47116077 -0.6293241 -0.2613985 -0.02818838 -0.19521506 -0.116701424 0.4075152 0.2155872
0.13475694 0.3400835 0.293124 0.31050897 0.5285222 -0.07887604 -0.13628928 -0.105314
-0.47350627 -0.345524 -0.054530423 -0.116450354 -0.33247882 -0.40056157 -0.9717799 -1.2310219
-0.9640878 -1.0374727 -1.2864549 -0.7236329 0.07359289 0.11589151 0.21187823 -0.15544198
0.04914418 -0.04233375 -0.046208557 -0.17388974 -0.039769277 0.41808397 0.6833665 0.762472
-0.4615207 -0.05590084 0.30151072 -0.49760094 -0.3402929 -0.09740105 0.09481084 0.12840517
-0.075519815 -0.06509708 -0.1315747 -0.68171096 -0.03444585 -0.076693974 -0.39700472 -0.28565806
0.14720415 0.08287969 -0.0033855073 0.08004762 -0.14343147 0.012380243 -0.19737172 0.018790234
0.11500224 -0.12633558 -0.09741335 0.019265724 0.01999379 0.09425133 0.04779544 -0.08839314
-0.16750348 -0.119003035 -0.6723133 0.54353863 0.21662974 -0.80516845 1.3919775 -0.19538878
-0.25505012 0.7702495 0.17327467 -0.30640626 -0.3826164 0.2276901 -0.2935595 -0.5039485
0.4014587 -0.100129366 -0.22613911 0.3247683 -0.17329094 -0.24234985 0.40573147 -0.44861972
-0.25874996 0.29503402 -0.5314562 0.008230489 0.115227476 -0.8304801 0.5733634 -0.9040988
0.81900245 0.7483283 0.57652336 0.38443065 -0.44837463 -0.0014931887 0.3582243 0.100214146
0.13106032 -0.022776522 -0.19254477 0.014046477 -0.16832308 -0.3495715 0.06920761 -0.0400668
0.058777537 -0.05599778 0.23042718 -0.007898881 -0.059367374 -0.16347136 -0.14091684 -0.3124574
0.38010013 -0.43882063 0.2819641 -0.83985174 -0.5450017 -0.41080284 0.30243433 0.49128324
0.43650502 0.45441803 0.21500005 0.071286954 -0.11547145 0.066610694 0.056765795 -0.2678987
-0.30263314 -0.80166155 0.7471683 0.01914659 0.34746885 -0.637285 -0.5902804 -0.3774986
0.9425693 0.49683276 -0.14667651 0.47430605 -0.27856013 -0.08713851 0.006846706 0.100621104
-0.10271557 -0.011814211 0.17077078 -0.13202825 0.20824108 0.18135399 -0.44994968 -0.11401181
0.39987493 -0.69090134 -0.5421637 0.34644035 -0.032706037 -0.2769897 -0.62817925 0.87724715
0.23124218 -0.8441879 1.5080996 1.0863538 -0.33126798 0.00010943765 0.23751521 -0.03916581
0.19140665 -0.077033654 0.25404534 0.17311302 0.23371375 0.13600014 -0.013478426 0.05731756
0.34438905 -0.44205892 -0.16107342 -0.1518763 -0.44094855 -0.30165473 0.011161491 -0.153251
-0.4510657 -0.25094968 -0.07048172 -0.17877406 -0.4021813 0.10364924 0.34782413 -0.18867946
0.060068574 0.5401394 -0.39865926 -0.70717466 0.14080183 0.7276787 0.27799255 -0.1823766
-0.020237878 -0.16412288 -0.37605977 0.18466392 -0.02122903 -0.44994655 -0.41071656 0.7242321
0.31264827 0.209032 -0.134109 0.26158038 0.27766618 -0.35302183 -0.4482453 0.08709297
0.2627451 0.024792504 -0.075744964 0.11743665 0.5248876 0.19699612 -0.5658601 -0.9070961
0.5878669 0.35015413 -0.55849963 -1.3677391 -0.0315804 -0.2780013 -0.095307924 -0.036365397
00000000: ba78 e53e dd74 383e 60f9 7d3e fd2b 80be
00000010: 0e1a 07bf ad28 35bf 84bc 053d 2bd7 eb3d
00000020: fc3b f13e 621b 21bf 06d6 85be 51eb e6bc
00000030: 75e6 47be 2801 efbd d5a5 d03e e4c2 5c3e
00000040: b9fd 093e 6d1f ae3e 5914 963e 08fb 9e3e
00000050: 3b4d 073f c389 a1bd 6b8f 0bbe deae d7bd
00000060: 6a6f f2be 86e8 b0be 4b5b 5fbd 867d eebd
00000070: aa3a aabe 6816 cdbe 91c6 78bf 2092 9dbf
00000080: 75ce 76bf e8cb 84bf 8eaa a4bf 0140 39bf
00000090: deb7 963d 8758 ed3d 9bf6 583e 2f2c 1fbe
000000a0: 684b 493d 2766 2dbd 2f45 3dbd 2710 32be
000000b0: 1ce5 22bd 1a0f d63e 1bf1 2e3f 5d31 433f
000000c0: 714c ecbe 47f8 64bd 9d5f 9a3e 8dc5 febe
000000d0: df3a aebe 347a c7bd 302c c23d a57c 033e
000000e0: 22aa 9abd 9e51 85bd 85bb 06be 9c84 2ebf
000000f0: 1717 0dbd bb11 9dbd 3444 cbbe c641 92be
00000100: afbc 163e d4bc a93d 63df 5dbb 02f0 a33d
00000110: b3df 12be 81d6 4a3c d01b 4abe faed 993c
00000120: 4b86 eb3d 1d5e 01be a780 c7bd 27d3 9d3c
00000130: 04ca a33c d706 c13d 27c5 433d 7607 b5bd
00000140: 0886 2bbe ddb7 f3bd b91c 2cbf 5925 0b3f
00000150: 30d4 5d3e 851f 4ebf 522c b23f ff13 48be
00000160: ee95 82be 122f 453f ea6e 313e 48e1 9cbe
00000170: 4ce6 c3be 9827 693e 6e4d 96be c502 01bf
00000180: ff8b cd3e a010 cdbd 0391 67be 0848 a63e
00000190: 2e73 31be 8f2a 78be 09bc cf3e 7cb1 e5be
000001a0: e07a 84be b30e 973e 830d 08bf 2cd9 063c
000001b0: 62fc eb3d 589a 54bf f2c7 123f 0573 67bf
000001c0: 25aa 513f 7292 3f3f 0997 133f 18d4 c43e
000001d0: 5c91 e5be 19b7 c3ba 2d69 b73e 133d cd3d
000001e0: ad34 063e d495 babc 752a 45be 3223 663c
000001f0: e35c 2cbe 09fb b2be b8bc 8d3d 161d 24bd
00000200: b7c0 703d ee5d 65bd 1af5 6b3e 4f6a 01bc
00000210: 342b 73bd 0965 27be 814c 10be 6bfa 9fbe
00000220: 7c9c c23e 19ad e0be 995d 903e 8600 57bf
00000230: 3b85 0bbf c054 d2be acd8 9a3e 7a89 fb3e
00000240: 967d df3e 7ba9 e83e f928 5c3e e5fe 913d
00000250: 4c7c ecbd 306b 883d 4083 683d 052a 89be
00000260: bbf2 9abe b139 4dbf 6c46 3f3f 4fd9 9c3c
00000270: 70e7 b13e 1c25 23bf 9e1c 17bf 7f47 c1be
00000280: 394c 713f dd60 fe3e 5e32 16be 3ed8 f23e
00000290: 6f9f 8ebe ad75 b2bd 555a e03b 7012 ce3d
000002a0: 8a5c d2bd 6490 41bc 89de 2e3e 6a32 07be
000002b0: 263d 553e dcb4 393e ce5f e6be 067f e9bd
000002c0: 68bc cc3e e9de 30bf 3ecb 0abf a160 b13e
000002d0: c4f6 05bd 98d1 8dbe 5bd0 20bf 4593 603f
000002e0: c0ca 6c3e b31c 58bf 6809 c13f a40d 8b3f
000002f0: f59b a9be e481 e538 3037 733e 546c 20bd
00000300: 1b00 443e d2c3 9dbd 3b12 823e 8a44 313e
00000310: a852 6f3e 9f43 0b3e 9ed4 5cbc d1c5 6a3d
00000320: c353 b03e 8c55 e2be 6ef0 24be 7685 1bbe
00000330: 02c4 e1be 7d72 9abe b0de 363c d5ed 1cbe
00000340: 15f2 e6be 7a7c 80be b858 90bd 8c10 37be
00000350: b5ea cdbe 0e46 d43d 0116 b23e 3035 41be
00000360: 770a 763d 9346 0a3f 111d ccbe 6609 35bf
00000370: 5b2e 103e 2749 3a3f 0a55 8e3e eec0 3abe
00000380: e8c9 a5bc d40f 28be e88a c0be 8a18 3d3e
00000390: 81e8 adbc 655f e6be 7149 d2be 4667 393f
000003a0: 6f13 a03e 7c0c 563e df53 09be dded 853e
000003b0: 432a 8e3e 47bf b4be 6880 e5be cd5d b23d
000003c0: 8786 863e a619 cb3c 2d20 9bbd a082 f03d
000003d0: 095f 063f 5ab9 493e 35dc 10bf 7337 68bf
000003e0: 727e 163f 6747 b33e d5f9 0ebf 1312 afbf
000003f0: 735a 01bd 3056 8ebe cd30 c3bd e2f3 14bd

conv2.0.bias f4 [16]
1.4051396 0.2806313 -0.24086615 0.10072642 -0.03171176 -0.56476194 0.17303948 -1.2676985
0.19334587 -1.1282346 -0.41152227 1.6604707 0.04430367 -0.6067769 0.31312165 0.37029684
00000000: 9ddb b33f e8ae 8f3e 9ea5 76be a749 ce3d
00000010: 31e4 01bd 3d94 10bf 4331 313e f243 a2bf
00000020: 76fc 453e fe69 90bf 0cb3 d2be 4e8a d43f
00000030: c477 353d bb55 1bbf 7b51 a03e 8c97 bd3e

conv3.0.weight f4 [32, 16, 3, 3]
0.40670758 -0.08956391 -0.018972965 -0.030271647 0.21859553 0.28428048 0.1251402 0.19470067
0.21816193 -0.6782571 -0.58380336 -0.1858694 -0.7967125 -1.0117631 -0.3191195 -0.3693935
-0.6753456 0.11670418 0.011802439 -0.1564699 -0.058824692 -0.107508466 -0.14946017 0.34284493
-0.08407651 0.2265673 0.000791928 -0.105642684 -0.056209885 -0.16209175 0.35542536 -0.22497833
-0.46130636 0.40503946 0.2428443 0.16860396 0.19205168 0.112241454 0.011179372 0.28677762
-0.06676643 0.15437463 0.113119 0.120953485 -0.1449827 0.2152208 -0.088035665 -0.46350744
0.27335462 0.020206658 -0.2634346 0.07217455 0.2424808 0.12761876 0.25838986 -0.26327112
-0.353762 0.37115657 -0.2864275 -0.053881418 0.097791635 -0.101357184 0.15179615 -0.07925034
-0.0707847 0.081131205 -0.14122355 -0.64325225 -0.33266214 0.063573964 -0.046682876 -0.12745757
0.023423748 0.07105552 -0.29078066 0.07258431 0.33601016 0.3227367 -0.09022158 0.2980326
0.22875178 -0.062286004 -0.18437205 -0.15180884 0.1729792 -0.15821464 -0.15475835 0.04130134
-0.30754834 -0.08044735 0.09807539 0.030421682 0.2631359 -0.16459823 0.05450764 0.07773712
-0.079459816 -0.2657323 0.27816975 -0.07749078 -0.03763759 -0.2739903 0.16852131 0.10591396
-0.10223611 0.4503421 0.034884267 -0.11932926 -0.043066088 0.17112881 0.35067993 -0.22871448
-0.23154338 0.065355904 0.14725503 -0.24780141 0.04107195 0.13528623 -0.2988985 -0.019701647
0.27854475 -0.3904177 -0.33897164 0.16668315 0.044956345 -0.09915682 -0.2335243 -0.40686312
-0.054007158 -0.16594605 -0.32401186 0.16342527 0.14350905 0.09513373 0.19684157 0.13858351
0.4046648 0.49292198 -0.27392498 -0.141697 0.1174882 -0.06928542 -0.11556288 -0.06251567
0.009226451 0.094244376 0.060819 -0.15087354 0.04731991 -0.1070296 -0.1511669 0.20893615
-0.2123701 0.13591404 -0.010916718 -0.22572118 -0.3849332 -0.1819959 -0.21806186 -0.16999306
-0.22143991 -0.0948618 -0.15663333 -0.025631417 -0.10942665 -0.26563784 -0.09692801 0.43094927
0.14094059 0.4302075 0.36783352 0.14005353 -0.32023913 0.014791157 -0.015720412 -0.25563776
-0.07432036 -0.107757464 -0.16450034 0.040877778 0.124044396 0.055039197 -0.07867521 -0.20425826
-0.23002525 -0.30153957 -0.13014235 -0.41676244 -0.31267598 0.28580096 0.13874517 0.22369185
0.097154446 0.13425569 -0.080441676 -0.2633061 -0.0981491 -0.13894992 -0.15353009 -0.25692007
0.005952572 -0.11501032 -0.11237426 0.3980163 -0.06485328 0.12365615 0.2931373 -0.0880342
-0.08254389 0.0050375476 0.07637537 -0.11589236 0.32233828 0.26259956 0.20209628 0.23573457
-0.2619308 -0.21677661 -0.19188741 -0.20767868 -0.045998868 -0.017261509 0.16442187 0.24515587
0.29919595 -0.33247998 -0.5355118 -0.3002647 -0.28096405 -0.5732925 -0.37723747 0.13156956
0.15062104 0.031612664 0.12859851 -0.073024094 -0.11498294 -0.026843566 0.03429073 -0.04207989
0.08107246 0.111993566 0.1516472 -0.22924428 -0.23672183 0.16454394 -0.15313573 -0.25861773
-0.112957425 -0.38174084 -0.1479248 -0.070232116 0.09493624 0.011044022 0.2646971 0.055488415
00000000: fa3b d03e 496d b7bd 316d 9bbc 3ffc f7bc
00000010: 82d7 5f3e 368d 913e c124 003e 9d5f 473e
00000020: d765 5f3e 42a2 2dbf 2374 15bf 8c54 3ebe
00000030: 5af5 4bbf 7481 81bf a263 a3be 2521 bdbe
00000040: 73e3 2cbf 9a02 ef3d 045f 413c a539 20be
00000050: 29f2 70bd 662d dcbd 160c 19be 5f89 af3e
00000060: 4e30 acbd 4201 683e 6399 4f3a 315b d8bd
00000070: 563c 66bd 61fb 25be 50fa b53e b860 66be
00000080: 5930 ecbe 5561 cf3e 2dac 783e 84a6 2c3e
00000090: 32a9 443e d9de e53d af29 373c 84d4 923e
000000a0: d7bc 88bd 6214 1e3e efaa e73d 76b6 f73d
000000b0: 5876 14be d762 5c3e 0b4c b4bd d950 edbe
000000c0: 23f5 8b3e 6f88 a53c e6e0 86be 40d0 933d
000000d0: e34c 783e 7eae 023e ad4b 843e 79cb 86be
000000e0: 4b20 b5be 3c08 be3e a0a6 92be c3b2 5cbd
000000f0: fb46 c83d 5b94 cfbd 7370 1b3e 014e a2bd
00000100: 92f7 90bd 1e28 a63d e89c 10be 2eac 24bf
00000110: b152 aabe 1133 823d 8b36 3fbd 3d84 02be
00000120: 29e3 bf3c 8e85 913d 34e1 94be 15a7 943d
00000130: 8609 ac3e bf3d a53e 17c6 b8bd bb97 983e
00000140: e83d 6a3e 9c1f 7fbd 07cc 3cbe c773 1bbe
00000150: 7621 313e 0503 22be f978 1ebe 982b 293d
00000160: fa76 9dbe 95c1 a4bd c0db c83d e436 f93c
00000170: c0b9 863e 708c 28be 6743 5f3d a434 9f3d
00000180: d4bb a2bd 100e 88be 446c 8e3e 7cb3 9ebd
00000190: e029 1abd 7548 8cbe da90 2c3e 6be9 d83d
000001a0: 2a61 d1bd 3d93 e63e cee2 0e3d e662 f4bd
000001b0: 1166 30bd 643c 2f3e 528c b33e 2134 6abe
000001c0: b519 6dbe 51d9 853d 06ca 163e a7bf 7dbe
000001d0: 103b 283d 7988 0a3e 3909 99be 5965 a1bc
000001e0: 6b9d 8e3e d4e4 c7be b18d adbe fdae 2a3e
000001f0: 2524 383d bb12 cbbd fe20 6fbe 5d50 d0be
00000200: 9c36 5dbd c3ed 29be e2e4 a5be f458 273e
00000210: 09f4 123e 79d5 c23d d690 493e d6e8 0d3e
00000220: 3a30 cf3e 4560 fc3e e53f 8cbe 0519 11be
00000230: a79d f03d 84e5 8dbd 3bac ecbd 3708 80bd
00000240: 8a2a 173c 3203 c13d 581d 793d 987e 1abe
00000250: 86d2 413d 5632 dbbd 7fcb 1abe 5cf3 553e
00000260: 8c77 59be 0d2d 0b3e 09dc 32bc 7423 67be
00000270: f715 c5be 225d 3abe 9c4b 5fbe a912 2ebe
00000280: 25c1 62be e746 c2bd 7d64 20be faf8 d1bc
00000290: 141b e0bd af01 88be 3182 c6bd 62a5 dc3e
000002a0: bb52 103e 2844 dc3e ad54 bc3e 316a 0f3e
000002b0: 62f6 a3be 9c56 723c 18c8 80bc f4e2 82be
000002c0: 4635 98bd f2af dcbd c772 28be 756f 273d
000002d0: fd0a fe3d c870 613d 7820 a1bd 1429 51be
000002e0: bd8b 6bbe 6563 9abe 0944 05be e361 d5be
000002f0: 1117 a0be 8154 923e 3713 0e3e 7a0f 653e
00000300: e9f8 c63d 537a 093e 9bbe a4bd 0fd0 86be
00000310: 6502 c9bd e348 0ebe fe36 1dbe 078b 83be
00000320: cb0d c33b 888a ebbd 7a24 e6bd cbc8 cb3e
00000330: ccd1 84bd 703f fd3d 1816 963e 464b b4bd
00000340: c50c a9bd 0312 a53b b16a 9c3d f958 edbd
00000350: 8609 a53e 7373 863e 54f2 4e3e 6764 713e
00000360: cb1b 86be b0fa 5dbe 227e 44be b8a9 54be
00000370: 4f69 3cbd 0268 8dbc 355e 283e 240a 7b3e
00000380: 3630 993e d13a aabe 4d17 09bf 4bbc 99be
00000390: 85da 8fbe 4cc3 12bf 4525 c1be 2cba 063e
000003a0: 673c 1a3e 487c 013d 54af 033e a88d 95bd
000003b0: 2d7c ebbd 0ae7 dbbc 7074 0c3d f65b 2cbd
000003c0: 5109 a63d e25c e53d 6749 1b3e 03bf 6abe
000003d0: 3567 72be 357e 283e 9dcf 1cbe 8b69 84be
000003e0: 3956 e7bd 8973 c3be 9979 17be dbd5 8fbd
000003f0: ee6d c23d fcf1 343c 6186 873e d247 633d

conv3.0.bias f4 [32]
0.07551518 0.09340775 0.14533946 -0.3734631 0.16780399 -0.01832406 0.02135666 -0.95268667
0.38948455 0.004940292 0.5766008 0.6102601 -0.51807857 -0.30535272 -0.6481175 -0.0799677
-0.030120252 -0.3355189 0.046586562 0.67448926 -0.23782404 -0.16008659 -0.6095718 0.22419655
-0.31204042 0.25841075 0.1188562 -0.7811789 0.04531242 -0.4897244 0.22819063 0.25917095
00000000: b4a7 9a3d 904c bf3d ded3 143e 8e36 bfbe
00000010: cfd4 2b3e 571c 96bc 2af4 ae3c 46e3 73bf
00000020: 856a c73e 2ce2 a13b 1c9c 133f 023a 1c3f
00000030: cca0 04bf 3157 9cbe 07eb 25bf 1bc6 a3bd
00000040: bfbe f6bc 22c9 abbe 8dd1 3e3d 54ab 2c3f
00000050: 2588 73be bded 23be e60c 1cbf c893 653e
00000060: c3c3 9fbe 6a4e 843e e16a f33d 57fb 47bf
00000070: 8499 393d 28bd fabe ceaa 693e 0eb2 843e

conv4.0.weight f4 [64, 32, 3, 3]
-0.03371501 -0.15693636 0.11277205 -0.12349088 -0.08384385 0.064751215 0.022480978 -0.044068757
-0.11029252 0.12360841 0.14683817 0.0014592011 0.087221056 -0.0011105137 -0.059434954 0.14979385
-0.2423324 0.049955975 0.07628568 0.044052504 0.23493703 -0.048500452 -0.10333748 -0.16576447
-0.22035843 -0.121088244 0.22234334 -0.038177647 -0.14438236 -0.1895469 -0.12939198 0.09686664
0.09129978 0.016799252 -0.018277247 0.023938777 -0.11801662 0.17763579 0.023164513 0.24461924
-0.076612405 -0.102785096 -0.14661619 -0.08174546 -0.016808854 0.09294154 -0.27727646 -0.2452889
-0.04189928 -0.03567331 -0.2254487 -0.15080827 -0.44797936 -0.19422978 -0.094673865 -0.075774856
0.0063563706 -0.16194676 0.1374773 0.020188952 0.3914527 0.091247134 0.21647103 -0.11413622
0.06734394 0.0009658192 0.1034434 0.007923508 -0.14758733 -0.21265987 -0.26476613 0.20342602
-0.11376599 0.07412762 -0.11563583 -0.033771165 -0.09444392 -0.08660253 -0.1391905 0.24350132
-0.14911646 0.079275005 -0.24992557 -0.20538126 0.0119667575 0.15659982 0.1778403 -0.13317092
-0.105672725 0.048690163 -0.22130081 -0.11372272 -0.08420481 -0.20304602 -0.00018388023 -0.028913766
-0.08057651 -0.13546477 0.11389685 0.042168353 -0.034821272 -0.12928039 0.0030654771 0.08516793
-0.035460804 0.060356624 -0.060047187 0.1916413 0.008412855 -0.1851075 -0.17315209 0.044197038
0.11929316 0.0107707335 0.14544311 -0.04549055 -0.02421994 -0.12910384 -0.0051209214 -0.1943307
-0.09210281 -0.07683449 -0.0858013 -0.07482914 0.1879868 0.049388178 -0.07885049 0.094768666
-0.050640937 0.15546772 -0.19328243 -0.062882826 0.11581904 -0.013868108 0.14381331 -0.03923779
-0.09245721 0.004282339 0.014627534 0.18946879 0.10008087 0.10886679 -0.0683261 0.06611854
0.114401996 0.095390275 0.08848414 0.078317866 -0.114174604 -0.24410139 -0.08159574 -0.28411168
-0.14587076 -0.070136875 -0.17319697 -0.16431478 -0.12343384 0.038177166 -0.06428495 -0.010216717
-0.12554783 0.041753866 -0.1043173 0.11624953 -0.15851288 -0.039248556 -0.043665122 -0.102258116
0.085253276 -0.039720204 -0.01414818 -0.21910954 -0.14577083 -0.013212235 -0.011570946 -0.035080902
-0.16797554 0.2993248 0.105751336 0.06825023 -0.22384374 -0.08332307 -0.14670734 0.0713513
-0.05532101 -0.10559217 -0.2174414 -0.051501747 0.24100627 -0.17642945 0.07689097 0.2806374
-0.10669904 -0.13860804 0.15588091 -0.01511115 -0.08123176 -0.07714955 -0.1198371 -0.2306251
-0.16716582 0.23055236 -0.10988735 0.011796749 -0.16406667 0.010416484 -0.06936965 -0.036422867
0.11657118 -0.12711234 -0.043899197 -0.17174974 0.12446806 0.14718315 -0.119356066 0.099394105
0.110150404 -0.15647137 -0.049076308 -0.0717521 -0.058060214 -0.124596864 -0.08078349 -0.123834446
-0.11411092 0.0018792541 -0.17754029 0.11866072 0.081184365 0.2490302 0.15077679 -0.09807658
0.050104838 0.29864138 -0.036980443 0.12382768 -0.014337945 0.22879519 0.11698262 -0.2844194
-0.05525818 -0.041642267 0.17247489 -0.14637731 -0.11668308 0.01672022 0.24924657 0.22587194
-0.13776928 0.082487814 0.11745084 0.14126948 0.05148619 0.19290604 0.17921545 -0.001506492
00000000: c018 0abd edb3 20be 08f5 e63d c9e8 fcbd
00000010: 53b6 abbd 499c 843d 072a b83c 7181 34bd
00000020: 0be1 e1bd 6826 fd3d bf5c 163e aa42 bf3a
00000030: f4a0 b23d a88e 91ba 1172 73bd 8f63 193e
00000040: fc25 78be a39e 4c3d ab3b 9c3d 6670 343d
00000050: 5593 703e 69a8 46bd 9aa2 d3bd 29be 29be
00000060: a4a5 61be 1dfd f7bd f9ad 633e 2a60 1cbd
00000070: f8d8 13be 9518 42be 557f 04be 0462 c63d
00000080: 61fb ba3d 969e 893c 2aba 95bc 411b c43c
00000090: b3b2 f1bd 28e6 353e 81c3 bd3c 777d 7a3e
000000a0: f7e6 9cbd fe80 d2bd 8e22 16be 2a6a a7bd
000000b0: b9b2 89bc 2258 be3d 2ef7 8dbe 032d 7bbe
000000c0: 949e 2bbd 2d1e 12bd 06dc 66be 7c6d 1abe
000000d0: 8d5d e5be 2ce4 46be 5fe4 c1bd d92f 9bbd
000000e0: 1a49 d03b 5fd5 25be d9c6 0c3e 4d63 a53c
000000f0: 7d6c c83e c7df ba3d 95aa 5d3e 40c0 e9bd
00000100: 9feb 893d 082f 7d3a 22da d33d 9ad1 013c
00000110: 2221 17be 82c3 59be 6d8f 87be e94e 503e
00000120: 25fe e8bd 39d0 973d 7ad2 ecbd a253 0abd
00000130: d06b c1bd ab5c b1bd f487 0ebe 6958 793e
00000140: fcb1 18be ef5a a23d 7dec 7fbe 774f 52be
00000150: 3810 443c b45b 203e c51b 363e f55d 08be
00000160: f16a d8bd 566f 473d ae9c 62be 75e7 e8bd
00000170: 9273 acbd 4ceb 4fbe f9cf 40b9 90dc ecbc
00000180: 4c05 a5bd 47b7 0abe c042 e93d b9b8 2c3d
00000190: c0a0 0ebd 1462 04be 2ce6 483b 866c ae3d
000001a0: 593f 11bd 8238 773d 0af4 75bd 9e3d 443e
000001b0: 12d6 093c d28c 3dbe c84e 31be f407 353d
000001c0: f94f f43d bb77 303c 0aef 143e 4d54 3abd
000001d0: e568 c6bc cc33 04be 67cd a7bb a1fe 46be
000001e0: 66a0 bcbd 675b 9dbd 98b8 afbd 0540 99bd
000001f0: 9d7f 403e 424b 4a3d 5e7c a1bd 1316 c23d
00000200: df6c 4fbd ee32 1f3e d4eb 45be b6c8 80bd
00000210: 8832 ed3d 1037 63bc cc43 133e ceb7 20bd
00000220: 355a bdbd dd52 8c3b 53a8 6f3c 1b04 423e
00000230: 33f7 cc3d 8df5 de3d 8eee 8bbd 2869 873d
00000240: 984b ea3d fa5b c33d 2c37 b53d 1e65 a03d
00000250: 60d4 e9bd b7f5 79be ab1b a7bd 1677 91be
00000260: 255f 15be eca3 8fbd 8c5a 31be 2242 28be
00000270: e2ca fcbd a95f 1c3d d4a7 83bd 0464 27bc
00000280: 9c8f 00be 1a06 2b3d 4fa4 d5bd 3c14 ee3d
00000290: 3351 22be 18c3 20bd 33da 32bd b46c d1bd
000002a0: 4599 ae3d a7b1 22bd c5cd 67bc 405e 60be
000002b0: f344 15be 2178 58bc 1194 3dbc feb0 0fbd
000002c0: c801 2cbe 1a41 993e 2894 d83d c7c6 8b3d
000002d0: 4b37 65be 49a5 aabd 733a 16be a120 923d
000002e0: 4998 62bd b540 d8bd f5a8 5ebe 7ff3 52bd
000002f0: 59ca 763e eca9 34be 0379 9d3d b5af 8f3e
00000300: 0785 dabd 44ef 0dbe 3f9f 1f3e c294 77bc
00000310: d65c a6bd 9500 9ebd 276d f5bd fc28 6cbe
00000320: 842d 2bbe eb15 6c3e 9e0c e1bd 2747 413c
00000330: 1801 28be e7a9 2a3c ad11 8ebd 2530 15bd
00000340: dfbc ee3d bd29 02be a5cf 33bd 2adf 2fbe
00000350: 1ce9 fe3d 2eb7 163e f470 f4bd 238f cb3d
00000360: 8996 e13d 083a 20be 3d04 49bd c4f2 92bd
00000370: 8cd0 6dbd a42c ffbd d071 a5bd ea9c fdbd
00000380: fcb2 e9bd 4e51 f63a 1fcd 35be 6404 f33d
00000390: fd43 a63d c601 7f3e 3b65 1a3e 60dc c8bd
000003a0: bb3a 4d3d 86e7 983e ce78 17bd 5e99 fd3d
000003b0: b3e9 6abc 4949 6a3e 9594 ef3d 6b9f 91be
000003c0: 6756 62bd 1591 2abd 429d 303e efe3 15be
000003d0: 8af7 eebd d8f8 883c 7e3a 7f3e f94a 673e
000003e0: 6413 0dbe 5fef a83d 118a f03d f2a8 103e
000003f0: 2fe3 523d 2989 453e 4184 373e 7c75 c5ba

conv4.0.bias f4 [64]
-0.116043985 -0.26880157 -0.26467514 -0.4718269 -0.17104225 -0.2628237 -0.20289747 0.12324588
-0.40138808 0.017329207 -0.38269898 -0.0107486835 -0.26572895 -0.56280524 0.032799955 -0.055683084
0.26831284 -0.36667603 -0.13114475 0.15351099 0.13601929 -0.37368235 -0.20328332 -0.44430417
-0.21585928 0.1307807 -0.24527553 -0.5076098 -0.06876657 -0.14682423 -0.10127913 0.44361368
0.31192377 -0.1957076 0.18750314 0.30444846 -0.083798334 0.32180145 -0.020753834 -0.29221824
0.31067774 -0.063521266 -0.211374 -0.26808405 -0.3589659 -0.040482678 -0.23853254 -0.39676917
-0.027851019 0.4133167 -0.31311122 -0.36998108 -0.22830248 -0.3165656 -0.2438048 -0.22576487
0.21295968 0.010307677 -0.4948423 0.49808657 -0.15683267 -0.13831514 -0.15849893 0.2999137
00000000: 78a8 edbd 5ca0 89be 8083 87be 4c93 f1be
00000010: b325 2fbe d490 86be 5bc4 4fbe 5668 fc3d
00000020: bd82 cdbe fbf5 8d3c 1ff1 c3be 3f1b 30bc
00000030: a00d 88be 0114 10bf 3f59 063d f213 64bd
00000040: 4d60 893e f6bc bbbe cf4a 06be fc31 1d3e
00000050: a448 0b3e 4b53 bfbe 8129 50be d67b e3be
00000060: 370a 5dbe 60eb 053e 8229 7bbe b7f2 01bf
00000070: 7dd5 8cbd 1759 16be 6f6b cfbd 5521 e33e
00000080: 79b4 9f3e 9367 48be d300 403e abe0 9b3e
00000090: 769e abbd 29c3 a43e f203 aabc a19d 95be
000000a0: 2711 9f3e 7017 82bd 6d72 58be 5042 89be
000000b0: 61ca b7be 2ad1 25bd e041 74be 5425 cbbe
000000c0: d227 e4bc 3f9e d33e 1d50 a0be 296e bdbe
000000d0: 20c8 69be e314 a2be f7a7 79be e82e 67be
000000e0: 1a12 5a3e 88e1 283c f85b fdbe 3405 ff3e
000000f0: be98 20be 7ca2 0dbe 8b4d 22be 4a8e 993e

conv5.0.weight f4 [128, 64, 3, 3]
-0.20385757 -0.158756 -0.10874285 -0.20353098 -0.0033562395 -0.019888563 -0.044605087 -0.03224571
-0.016499756 0.05689006 0.11063678 -0.13271554 -0.2544311 -0.032156803 -0.020946637 -0.006941522
-0.03878049 -0.086483896 -0.0054117274 0.080070704 0.064370446 0.16232046 0.004199258 0.044221856
0.12158338 0.050672587 0.03210498 -0.24457285 0.2136001 -0.18128565 -0.12669262 -0.033336345
-0.057538033 -0.05590427 0.10793546 -0.0052977093 -0.1243808 -0.11540369 -0.006354218 -0.02610888
0.14760236 -0.023219816 -0.02591897 -0.09375038 -0.05950915 0.011052471 -0.038925856 -0.048385546
0.010071067 -0.055550292 0.016898667 0.04209992 -0.09493129 -0.089270785 -0.037253145 -0.2244037
0.09291988 0.010908571 -0.015247209 -0.06878167 -0.015715659 -0.14296432 0.12029798 -0.15115394
0.036978785 0.11450478 -0.057558805 -0.070688084 -0.06554208 -0.14015064 0.09946746 -0.06878786
0.01473797 0.13673908 0.12674806 0.05676356 0.014319097 -0.05082264 -0.016576163 -0.0331514
0.046876565 0.014223895 0.08023235 0.10795389 -0.0144147435 0.20935126 -0.10904873 -0.024207458
-0.09752508 0.0459406 -0.053717114 0.09214434 -0.10854515 0.09471826 -0.20212631 0.115665674
0.00041667948 0.107923776 -0.019415619 -0.09566778 -0.21412937 -0.06030929 -0.012390568 -0.07520974
-0.043374278 0.1011592 0.027888808 -0.021778451 0.09736522 -0.14757939 -0.11997119 0.0050971475
0.13118099 -0.038696475 0.012400658 -0.065938585 0.015638309 0.07600012 0.16061375 0.17742096
-0.062201284 -0.19210097 0.022720626 0.00046162677 0.030710274 0.09244198 0.069624215 -0.08045254
-0.024645755 0.038570005 -0.24204637 0.069869295 0.019166144 -0.104678325 0.05017046 0.0068347123
-0.07416315 0.09107613 -0.057530172 0.12161197 0.07462763 0.13987799 0.16258602 -0.027662886
-0.05948696 0.15992099 -0.1292403 0.036715675 -0.13653609 -0.02949778 -0.026305327 0.02248285
-0.019055022 0.04248554 0.22973606 -0.019872181 0.0051203608 -0.30723947 0.15966171 -0.028601263
-0.11305193 -0.03223424 0.25898924 -0.047964077 -0.02812369 0.04188839 -0.25041744 0.17493914
-0.068894826 0.05510535 0.058553174 -0.12062372 -0.048314635 0.06508476 -0.029319819 -0.2726972
0.08403464 0.081858665 -0.039062593 0.03605152 -0.012089826 0.051997755 0.031085068 0.1799365
0.07004144 0.16184469 -0.03293314 0.027428858 -0.0904491 0.09822314 -0.1628483 -0.07323769
-0.000650011 -0.102957495 -0.013062582 0.049757943 -0.14769915 -0.08253438 -0.10347331 -0.0592631
-0.056049675 -0.08310887 -0.0359291 -0.22859597 0.035380416 -0.022555755 0.1044089 -0.019610826
0.18819493 -0.12403743 0.099749684 -0.25471902 0.09862367 -0.09563317 -0.010518098 -0.075918816
0.0702618 0.044583324 -0.09480398 -0.039356016 -0.07856772 -0.17015754 -0.048742842 -0.094141856
0.03041104 -0.041787595 0.2294377 -0.031519894 -0.10467462 -0.17261581 -0.08584476 0.0020468729
0.08430021 0.100867614 0.023866454 0.13378249 0.1332479 -0.13648705 -0.2676927 0.1501756
0.087501615 0.015461922 -0.13173307 -0.1022083 0.030350666 0.02058058 0.075205036 -0.08366662
0.029981084 0.026252 -0.031934325 -0.0553714 -0.025405483 -0.12560388 -0.007829033 0.15094538
00000000: 0ac0 50be ef90 22be 92b4 debd 6d6a 50be
00000010: 5bf4 5bbb 57ed a2bc d3b3 36bd 1414 04bd
00000020: 7f2a 87bc 8d05 693d 8995 e23d 95e6 07be
00000030: cb44 82be dab6 03bd 4898 abbc b575 e3bb
00000040: 4bd8 1ebd 781e b1bd dc54 b1bb 1cfc a33d
00000050: a7d4 833d 5637 263e ee99 893b fa21 353d
00000060: b500 f93d 0f8e 4f3d 8380 033d 4e71 7abe
00000070: fcb9 5a3e f2a2 39be b6bb 01be b18b 08bd
00000080: 00ad 6bbd e0fb 64bd 440d dd3d 6898 adbb
00000090: 5cbb febd c558 ecbd 0b37 d0bb 4ae2 d5bc
000000a0: 1325 173e 7c37 bebc 0554 d4bc 3300 c0bd
000000b0: debf 73bd 6c15 353c b870 1fbd ec2f 46bd
000000c0: 1e01 253c b488 63bd 136f 8a3c f770 2c3d
000000d0: 566b c2bd 9ad3 b6bd c196 18bd 15ca 65be
000000e0: c74c be3d ddb9 323c 6ecf 79bc 67dd 8cbd
000000f0: 20be 80bc 3d65 12be ca5e f63d 19c8 1abe
00000100: 1177 173d 7b81 ea3d c8c2 6bbd eac4 90bd
00000110: ed3a 86bd a683 0fbe 98b5 cb3d a6e0 8cbd
00000120: 8777 713c 5405 0c3e 3eca 013e e880 683d
00000130: a59a 6a3c 672b 50bd bcca 87bc c3c9 07bd
00000140: a401 403d 570b 693c dc50 a43d ee16 dd3d
00000150: d12b 6cbc 2d60 563e f154 dfbd b84e c6bc
00000160: 3bbb c7bd 362c 3c3d 7a06 5cbd 2cb6 bc3d
00000170: eb4c debd a6fb c13d 33fa 4ebe 20e2 ec3d
00000180: c675 da39 2407 dd3d 810d 9fbc 78ed c3bd
00000190: bb44 5bbe e006 77bd cf01 4bbc 9007 9abd
000001a0: 3aa9 31bd 8e2c cf3d 1277 e43c b968 b2bc
000001b0: 6b67 c73d 0d1f 17be 75b3 f5bd f905 a73b
000001c0: 4f54 063e 3280 1ebd 212c 4b3c cf0a 87bd
000001d0: e91b 803c f3a5 9b3d ee77 243e d7ad 353e
000001e0: c6c6 7ebd 1eb6 44be 9b20 ba3c 7f06 f239
000001f0: 1d94 fb3c 3952 bd3d 2497 8e3d 4dc4 a4bd
00000200: e5e5 c9bc 95fb 1d3d 01db 77be a217 8f3d
00000210: 5102 9d3c 9761 d6bd 8a7f 4d3d b9f5 df3b
00000220: d9e2 97bd 1f86 ba3d c2a4 6bbd b20f f93d
00000230: 5fd6 983d 2d3c 0f3e f37c 263e 479d e2bc
00000240: 99a8 73bd 54c2 233e 9257 04be 2d63 163d
00000250: 1ed0 0bbe 54a5 f1bc 457e d7bc f42d b83c
00000260: 4719 9cbc 5105 2e3d ee3f 6b3e fcca a2bc
00000270: b3c8 a73b 7e4e 9dbe 5c7e 233e 324d eabc
00000280: c587 e7bd 0d08 04bd 3d9a 843e fb75 44bd
00000290: a763 e6bc 2993 2b3d b736 80be 3f23 333e
000002a0: bb18 8dbd 26b6 613d 74d5 6f3d 9209 f7bd
000002b0: 91e5 45bd 294b 853d 1e30 f0bc f89e 8bbe
000002c0: 5a1a ac3d 84a5 a73d 1900 20bd c2aa 133d
000002d0: 6814 46bc 99fb 543d 1da6 fe3c 4641 383e
000002e0: e371 8f3d 9dba 253e e6e4 06bd 7cb2 e03c
000002f0: 613d b9bd 3729 c93d b4c1 26be a4fd 95bd
00000300: 8065 2aba 61db d2bd 7104 56bc fcce 4b3d
00000310: 723e 17be c907 a9bd d1e9 d3bd ddbd 72bd
00000320: 5894 65bd fc34 aabd 642a 13bd 1015 6abe
00000330: 0eeb 103d d9c6 b8bc 55d4 d53d e2a6 a0bc
00000340: 2cb6 403e 5607 febd 9049 cc3d 886a 82be
00000350: 35fb c93d 53db c3bd 1a54 2cbc 537b 9bbd
00000360: 6be5 8f3d 019d 363d 9728 c2bd c633 21bd
00000370: 1de8 a0bd c73d 2ebe 93a6 47bd 72cd c0bd
00000380: 9320 f93c 7829 2bbd b7f1 6a3e 011b 01bd
00000390: a65f d6bd 33c2 30be 61cf afbd d424 063b
000003a0: 97a5 ac3d ae93 ce3d 9583 c33c 47fe 083e
000003b0: 2372 083e 43c3 0bbe 040f 89be a2c7 193e
000003c0: 0c34 b33d 0054 7d3c 09e5 06be 9652 d1bd
000003d0: f6a1 f83c 9b98 a83c 1905 9a3d 6859 abbd
000003e0: e49a f53c 6f0e d73c 91cd 02bd 1fcd 62bd
000003f0: 291f d0bc 4e9e 00be 5845 00bc 6d91 1a3e

conv5.0.bias f4 [128]
-0.32808003 -0.14064714 0.196289 -0.2848547 -0.17566754 -0.21081652 0.21519133 -0.09348668
-0.070550196 -0.06375388 0.16600026 0.19539867 -0.07378872 -0.12404814 -0.101692475 0.023344208
0.502414 0.034147527 0.17353697 0.10743237 0.06255397 -0.10254152 -0.09036302 0.09659287
0.087977454 -0.22030835 -0.052276257 -0.041508593 0.20381539 -0.16895646 -0.32024187 -0.3180036
-0.4312074 -0.035107877 -0.19427411 0.09071631 0.03687596 -0.14732929 0.013998009 -0.116274625
0.10984004 -0.05305304 -0.19117253 -0.08323452 0.06417422 0.17992005 0.4512526 0.010031155
0.0028807956 -0.28173596 -0.06342198 -0.24867748 -0.09141613 0.16557439 -0.005516466 -0.1983003
-0.089494035 -0.13950245 -0.24767049 -0.20487896 -0.06849104 -0.089667775 0.057348013 0.15474829
-0.061377164 0.09012061 -0.33919966 -0.010212595 0.26817253 -0.08638326 0.0659096 0.13179003
-0.089078836 0.06645886 0.24093314 0.06473842 -0.06736814 -0.2991007 -0.02054073 -0.100586064
0.3215884 -0.028264023 0.04759768 -0.0933828 0.009603094 0.4531668 -0.16032833 0.095307216
-0.36119986 0.16546643 0.06133473 0.17829399 -0.2525736 -0.22974123 0.041847542 -0.26169118
-0.13888599 -0.05581481 0.19570269 -0.16059215 0.19344114 -0.02237584 -0.039441057 -0.14547291
-0.106729805 -0.0004963479 0.5026672 0.08472868 -0.1342646 -0.19502743 0.11392187 -0.11609982
-0.0505452 -0.04493891 -0.051608827 -0.25141537 0.056233685 -0.030188203 0.033967104 -0.33985355
0.3470914 -0.23892546 0.04747413 -0.117949635 -0.141947 -0.13175552 -0.0074783927 -0.12521777
00000000: 1bfa a7be ce05 10be fcff 483e 7ad8 91be
00000010: 31e2 33be 49e0 57be 1e5b 5c3e f275 bfbd
00000020: 9f7c 90bd 6591 82bd f9fb 293e 9716 483e
00000030: 8a1e 97bd f40c febd 2544 d0bd 5a3c bf3c
00000040: 349e 003f 47de 0b3d adb3 313e 8105 dc3d
00000050: 4c1c 803d 4a01 d2bd 3f10 b9bd 7cd2 c53d
00000060: 862d b43d 8398 61be a11f 56bd ea04 2abd
00000070: fbb4 503e ec02 2dbe bef6 a3be 5ed1 a2be
00000080: 37c7 dcbe 47cd 0fbd cbef 46be 79c9 b93d
00000090: 3f0b 173d 7ddd 16be e857 653c 6421 eebd
000000a0: d1f3 e03d 254e 59bd bbc2 43be dc76 aabd
000000b0: c66d 833d f63c 383e 950a e73e b759 243c
000000c0: bbcb 3c3b b23f 90be 62e3 81bd 4fa5 7ebe
000000d0: 6138 bbbd 558c 293e 79c3 b4bb 3c0f 4bbe
000000e0: a648 b7bd bbd9 0ebe 559d 7dbe cacb 51be
000000f0: 0845 8cbd bda3 b7bd c0e5 6a3d 5676 1e3e
00000100: 9f66 7bbd 2891 b83d 94ab adbe ba52 27bc
00000110: e94d 893e b5e9 b0bd 9dfb 863d f7f3 063e
00000120: f76e b6bd 951b 883d 2db7 763e 9495 843d
00000130: 4ff8 89bd ba23 99be 0845 a8bc 1100 cebd
00000140: 3ca7 a43e f489 e7bc c9f5 423d 7b3f bfbd
00000150: 4c56 1d3c 7b05 e83e 1c2d 24be 6e30 c33d
00000160: 30ef b8be 0870 293e 203a 7b3d b392 363e
00000170: 5451 81be 4941 6bbe 5468 2b3d 63fc 85be
00000180: 2138 0ebe 129e 64bd 4966 483e 4572 24be
00000190: 6f15 463e 8a4d b7bc f28c 21bd daf6 14be
000001a0: 2895 dabd 581d 02ba ccae 003f 3b86 ad3d
000001b0: a97c 09be 45b5 47be df4f e93d bec5 edbd
000001c0: 7c08 4fbd dd11 38bd c763 53bd 84b9 80be
000001d0: 4b55 663d 404d f7bc 1721 0b3d 4901 aebe
000001e0: f7b5 b13e e0a8 74be 3c74 423d 948f f1bd
000001f0: 8e5a 11be ebea 06be 4e0d f5bb 1639 00be

dense.0.weight f4 [120, 128]
-0.040733133 -0.064444564 0.08788866 0.12028657 -0.16008501 -0.03733076 0.1065775 -0.035619438
-0.021033913 0.15619564 0.006766385 -0.035125785 0.06103849 -0.10195198 -0.024428697 0.012497057
-0.02763769 -0.010230755 0.11683553 -0.14848463 0.07195105 0.092860825 -0.014378801 0.019402444
-0.028326605 0.09069582 0.014824371 -0.05393036 0.054287575 -0.0068780724 0.011009429 -0.13206868
-0.09797346 -0.024211472 0.02583609 -0.12751818 0.106904075 0.05343394 -0.12841363 0.07090489
0.015639225 -0.0018832269 0.026356995 0.12227707 -0.05783304 -0.07844223 -0.11780416 -0.10987771
0.12080436 -0.083324276 -0.09957712 -0.10953977 0.03311156 -0.03527641 -0.0007155016 -0.10764772
0.1342538 0.018048555 -0.02858655 0.04222756 0.029966978 -0.018293392 0.02289595 0.06902964
0.12974983 0.07601753 0.0197614 -0.013820792 -0.04119009 -0.00399103 -0.026324319 -0.09112165
0.07126386 0.1719724 0.06048534 0.002571474 0.099211596 0.111683205 0.054095004 -0.026315298
-0.018284144 0.004707796 -0.021672856 0.0009779495 0.05036817 0.06837493 -0.067468375 -0.0027266573
-0.1772649 0.001245526 0.035981346 -0.013641702 -0.11696414 0.059162922 -0.17740613 0.059304934
-0.14722437 -0.09712199 -0.11053495 0.028628359 -0.011089565 -0.027327439 0.03212439 -0.02315445
-0.004494892 0.029648408 0.09567723 0.035046402 -0.018634656 0.08817655 0.077818446 -0.11612425
0.08086022 -0.12520032 0.19750136 -0.10894953 0.08790607 -0.11240628 -0.05227355 -0.11126795
0.14501001 -0.008449312 0.024511145 -0.16886978 -0.070502505 -0.05283451 -0.067144684 0.009724252
-0.19925739 -0.049075074 0.14865176 -0.15078326 0.055623867 0.074165344 0.030224644 -0.022690248
-0.17113702 -0.054617163 0.026308732 -0.073742844 0.08401723 0.042514715 0.010375352 0.13212663
-0.00017460747 -0.006737845 0.15319459 -0.10046177 -0.0075253267 0.024673577 -0.034475364 -0.13082537
0.0032528732 -0.10721149 -0.11535847 -0.016015628 0.0789097 -0.023470378 0.0866505 0.04709346
0.045316663 0.008317235 -0.009561809 0.018838646 -0.3048892 -0.058412105 0.05282761 0.05274218
-0.13099766 0.05221274 0.03294309 0.0019302078 -0.012362358 -0.10816324 0.052415084 -0.13244566
0.046343327 -0.002635273 -0.14444564 0.06363351 0.005688719 0.10841937 0.062887326 -0.12212413
-0.074099496 -0.05255121 -0.15564775 -0.12782754 0.10981232 -0.052113075 -0.13757165 -0.14236832
0.2573646 -0.08283411 -0.024964262 -0.028188895 -0.060015537 0.027078802 0.006465093 0.12454973
-0.061088562 0.024423683 0.10571039 -0.14106977 0.09484829 -0.13819882 0.09983766 -0.010150711
-0.08396665 0.18881348 0.14393395 -0.07143292 -0.03084719 0.0627843 -0.09085851 -0.001766465
0.054440714 0.04489421 0.015660387 -0.056172527 -0.045711283 0.0023554878 -0.030479085 0.0942173
-0.12836146 -0.175806 -0.023409037 -0.1355534 0.029490959 -0.033930164 0.089131646 -0.10429998
-0.07555496 0.106982976 -0.05378627 0.053869985 -0.05943471 0.16774079 -0.11766526 -0.08158076
0.040617947 0.041197114 0.04953242 -0.0679134 0.08694072 -0.01561297 -0.10630936 -0.026388012
0.11139773 -0.17942035 0.24132943 -0.1993735 0.09755615 -0.0419936 -0.0153923705 -0.089937426
00000000: c9d7 26bd 83fb 83bd f8fe b33d ce58 f63d
00000010: 53ed 23be 24e8 18bd 4e45 da3d b0e5 11bd
00000020: 504f acbc c0f1 1f3e 8db8 dd3b 0ee0 0fbd
00000030: 7f03 7a3d 33cc d0bd b11e c8bc 75c0 4c3c
00000040: 7068 e2bc e69e 27bc 7747 ef3d 5b0c 18be
00000050: 125b 933d d12d be3d 1095 6bbc e0f1 9e3c
00000060: 320d e8bc bbbe b93d ebe1 723c 15e6 5cbd
00000070: a65c 5e3d 7461 e1bb e460 343c 033d 07be
00000080: 4fa6 c8bd 2357 c6bc 35a6 d33c 2094 02be
00000090: 86f0 da3d 8cdd 5a3d dd7e 03be 9536 913d
000000a0: d51d 803c 9cd6 f6ba a0ea d73c 676c fa3d
000000b0: 56e2 6cbd 52a6 a0bd 4f43 f1bd 9107 e1bd
000000c0: 4768 f73d eba5 aabd 17ef cbbd 6356 e0bd
000000d0: fd9f 073d ff7d 10bd 8090 3bba 6876 dcbd
000000e0: d479 093e 90da 933c 572e eabc cef6 2c3d
000000f0: 4f7d f53c 06dc 95bc 4a90 bb3c 695f 8d3d
00000100: 24dd 043e 14af 9b3d a9e2 a13c 9a70 62bc
00000110: f1b6 28bd 30c7 82bb 19a6 d7bc fd9d babd
00000120: c9f2 913d 8819 303e 7abf 773d 2d86 283b
00000130: 732f cb3d 2aba e43d b992 5d3d 2e93 d7bc
00000140: a1c8 95bc db43 9a3b 468b b1bc 8a2e 803a
00000150: db4e 4e3d 2808 8c3d dc2c 8abd b8b1 32bb
00000160: ee84 35be eb40 a33a 2d61 133d 7281 5fbc
00000170: e58a efbd d254 723d f4a9 35be bbe9 723d
00000180: fcc1 16be e5e7 c6bd 2660 e2bd 0586 ea3c
00000190: 02b1 35bc cbdd dfbc dd94 033d 67ae bdbc
000001a0: e349 93bb 38e1 f23c 6cf2 c33d d18c 0f3d
000001b0: b5a7 98bc e895 b43d 475f 9f3d 8dd2 edbd
000001c0: 0b9a a53d 8334 00be cc3d 4a3e ee20 dfbd
000001d0: 1908 b43d 4435 e6bd ca1c 56bd 73e0 e3bd
000001e0: 817d 143e fc6e 0abc 99cb c83c 33ec 2cbe
000001f0: 9e63 90bd 0069 58bd 2783 89bd 7852 1f3c
00000200: 210a 4cbe f202 49bd 2b38 183e ed66 1abe
00000210: dad5 633d 00e4 973d ac99 f73c e6e0 b9bc
00000220: 8b3e 2fbe 3fb6 5fbd 6985 d73c 7d06 97bd
00000230: 3a11 ac3d e923 2e3d 61fd 293c 344c 073e
00000240: d616 37b9 24c9 dcbb 0bdf 1c3e e7be cdbd
00000250: 0497 f6bb 3e20 ca3c 0a36 0dbd 16f7 05be
00000260: 282e 553b b391 dbbd 1041 ecbd 3533 83bc
00000270: 699b a13d f344 c0bc d175 b13d 12e5 403d
00000280: f79d 393d 0345 083c 22a9 1cbc 8153 9a3c
00000290: 701a 9cbe 8841 6fbd c461 583d 2f08 583d
000002a0: 4024 06be 07dd 553d 55ef 063d 07ff fc3a
000002b0: 7d8b 4abc b084 ddbd 33b1 563d d69f 07be
000002c0: 80d2 3d3d 8bb4 2cbb 8fe9 13be 4952 823d
000002d0: 6f68 ba3b fa0a de3d 12cb 803d 371c fabd
000002e0: 7ac1 97bd f03f 57bd 2062 1fbe 39e5 02be
000002f0: 48e5 e03d 8574 55bd 95df 0cbe 00c9 11be
00000300: 4bc5 833e eea4 a9bd da81 ccbc 66ec e6bc
00000310: dad2 75bd 5dd4 dd3c 22d9 d33b ee13 ff3d
00000320: 0038 7abd 2d14 c83c b07e d83d 9874 10be
00000330: d23f c23d fe83 0dbe b077 cc3d 2b4f 26bc
00000340: b5f6 abbd 5258 413e 6c63 133e 6c4b 92bd
00000350: 3fb3 fcbc 0e95 803d 0714 babd bb88 e7ba
00000360: 3afd 5e3d fee2 373d 364a 803c 2a15 66bd
00000370: c13b 3bbd 875e 1a3b 46af f9bc 00f5 c03d
00000380: 3071 03be 7d06 34be 4fc4 bfbc 83ce 0abe
00000390: 0697 f13c 5bfa 0abd a78a b63d 3a9b d5bd
000003a0: 8fbc 9abd e419 db3d fe4e 5cbd c6a6 5c3d
000003b0: cf71 73bd 3ec4 2b3e 7cfa f0bd d013 a7bd
000003c0: 015f 263d 4ebe 283d 82e2 4a3d 2e16 8bbd
000003d0: fa0d b23d 8bcd 7fbc b9b8 d9bd ac2b d8bc
000003e0: 7e24 e43d f8b9 37be 101f 773e 9128 4cbe
000003f0: 85cb c73d 7b01 2cbd 4830 7cbc 1d31 b8bd

dense.0.bias f4 [120]
-0.10186415 0.38264325 -0.2926773 -0.04396235 0.41217273 0.7313302 -0.07300919 -0.013041335
0.10589485 0.75781775 -0.010642185 0.235821 -0.11461337 -0.1294717 -0.33305797 0.32297906
-0.24306569 0.46801916 0.059421197 -0.1606664 0.38528717 -0.069124736 0.34411782 -0.14608549
-0.05625315 -0.098090984 0.51049423 0.10454007 0.58385044 0.30880016 -0.1260025 -0.04391156
0.3299327 0.9167001 0.686024 -0.04690151 0.33168608 0.20520028 -0.041990712 0.030476812
-0.2809521 0.1133796 0.19739394 -0.0249983 -0.017963717 0.17136393 -0.01468231 -0.087832876
-0.04839688 -0.043671306 0.61448956 0.3733214 -0.21587285 0.49490514 -0.16281493 -0.19040824
-0.09536239 0.10568797 0.03393183 0.15176503 -0.12136676 -0.052517336 -0.3719811 0.12634835
-0.016157482 0.21197072 0.18045995 0.3036983 0.034542587 0.038235284 -0.03776874 0.70129555
0.0133034075 -0.04695025 0.06518003 -0.031785928 -0.0012924036 -0.00019083354 -0.0012793312 0.7000076
0.09025309 -0.09792931 -0.05570931 -0.025803452 0.2662361 0.28791913 0.67254585 -0.017995708
-0.099105485 -0.053047698 -0.034085337 0.22628655 0.009449065 -0.031753898 -0.07323452 0.04944332
0.04763089 -0.108173944 -0.15993164 0.1548672 -0.12091425 -0.04742422 -0.49790823 0.0101171695
-0.071370214 0.49430504 0.05998799 0.06059421 0.043961704 -0.116005234 -0.04282157 -0.081653595
0.54056275 -0.12315108 -0.055633765 -0.022605915 -0.10560895 0.67406064 -0.11527344 0.15489691
00000000: 279e d0bd d1e9 c33e cdd9 95be dd11 34bd
00000010: 4e08 d33e 7538 3b3f d885 95bd 53ab 55bc
00000020: 66df d83d 5800 423f 8f5c 2ebc 0f7b 713e
00000030: 6aba eabd 3b94 04be 9386 aabe 835d a53e
00000040: 36e6 78be 35a0 ef3e a463 733d bc85 24be
00000050: 5c44 c53e 4591 8dbd 3630 b03e 6f97 15be
00000060: b469 66bd ede3 c8bd c0af 023f 1b19 d63d
00000070: 3977 153f 0e1b 9e3e cd06 01be 9cdc 33bd
00000080: f0ec a83e dcac 6a3f 459f 2f3f cc1b 40bd
00000090: c2d2 a93e 0620 523e 74fe 2bbd 82aa f93c
000000a0: f4d8 8fbe 9033 e83d a321 4a3e 3cc9 ccbc
000000b0: a528 93bc 077a 2f3e 128e 70bc b9e1 b3bd
000000c0: cf3b 46bd afe0 32bd 304f 1d3f fc23 bf3e
000000d0: c60d 5dbe 3564 fd3e f5b8 26be 61fa 42be
000000e0: 5b4d c3bd ef72 d83d 1afc 0a3d 4b68 1b3e
000000f0: 238f f8bd 6b1c 57bd 4f74 bebe 7661 013e
00000100: b25c 84bc da0e 593e 7eca 383e 587e 9b3e
00000110: 877c 0d3d 9a9c 1c3d 65b3 1abd 1b88 333f
00000120: 89f6 593c e84e 40bd 1c7d 853d f631 02bd
00000130: de65 a9ba 7d1a 48b9 3baf a7ba b333 333f
00000140: 9dd6 b83d 298f c8bd 722f 64bd c361 d3bc
00000150: 1950 883e 236a 933e f72b 2c3f bc6b 93bc
00000160: d1f7 cabd 8b48 59bd 119d 0bbd a9b7 673e
00000170: 40d0 1a3c 6010 02bd fbfb 95bd 1485 4a3d
00000180: 9c18 433d 4d8a ddbd 1fc5 23be 8295 1e3e
00000190: e4a1 f7bd e63f 42bd d4ed febe 7cc2 253c
000001a0: 8c2a 92bd 8d15 fd3e f7b5 753d a231 783d
000001b0: 3011 343d 2794 edbd ac65 2fbd 003a a7bd
000001c0: 5262 0a3f a236 fcbd 3be0 63bd 0a30 b9bc
000001d0: 8149 d8bd 3d8f 2c3f 7b14 ecbd 4c9d 1e3e

dense.2.weight f4 [84, 120]
-0.11031129 0.05353196 -0.07287747 -0.014886936 0.041585676 -0.05692327 -0.056294426 -0.029673627
-0.015857004 -0.077549845 -0.07046206 -0.04601264 0.07181205 -0.07084405 0.0085299825 -0.0123281665
-0.11425019 0.02202031 0.11432636 -0.0113953585 -0.0017037108 0.037301857 -0.021610811 0.023388483
-0.055599473 0.027613446 -0.01211821 0.021931123 -0.10714097 -0.03695427 0.04659507 0.040041994
-0.02130989 -0.033310216 -0.04401376 -0.05113557 -0.008571582 0.029531583 0.029958865 -0.07038285
-0.15763257 -0.1302361 -0.017239437 -0.036170535 -0.08850407 0.01561655 0.055251125 -0.05938789
0.033296186 -0.103405684 -0.11289758 0.09112171 -0.2246454 -0.026164373 0.09447047 -0.17659092
0.05686517 0.020353518 0.0091819195 -0.0044714995 -0.002348186 -0.07459098 -0.059360974 -0.095320955
-0.07503983 -0.10350765 -0.011928124 -0.054679226 0.12782164 -0.112911 -0.035507545 -0.022971591
0.03167912 -0.01361767 -0.09384954 -0.06391915 0.009404655 0.13556135 0.0382458 0.022800593
-0.037740234 -0.013591742 -0.10525702 -0.09651204 -0.012361555 0.03119751 -0.062578656 -0.15254365
-0.007095609 -0.018959122 0.026123589 -0.003302004 -0.082699575 0.008777487 0.02924131 0.02368403
-0.010125445 0.085823394 -0.015413296 -0.05183738 0.00054045155 0.017670846 -0.077772304 0.03566512
-0.17742127 0.08027868 0.117488496 -0.018868556 0.0042945114 -0.06497158 -0.06374382 0.02894036
0.0676006 -0.22729835 -0.081836626 -0.050913442 -0.018439928 -0.06848806 -0.06186117 -0.011805247
0.05237812 0.11879992 0.07012612 0.024486609 0.07834214 0.1956316 0.075251244 -0.10841032
0.09329559 -0.06632303 0.060820684 -0.065068886 -0.07582992 0.03575759 -0.024863616 -0.03909361
0.0033077616 -0.051690087 -0.05478739 0.003448096 -0.0877561 0.006258042 -0.14369489 -0.09123087
-0.007644597 -0.1672471 -0.09237905 -0.04886707 0.022909835 0.020391837 -0.06859567 -0.008031001
0.026467912 -0.012941321 -0.07629206 0.02454132 0.11548378 0.094982035 0.045994364 0.05509029
0.081419125 0.12956432 -0.1905409 0.058367934 -0.06198586 -0.089801945 0.060581163 -0.062295873
-0.049712326 0.10201321 -0.055747394 -0.07568922 -0.11121896 -0.045701742 -0.15452568 0.051832948
-0.025492445 -0.027156645 0.03608668 0.1450337 -0.077111766 0.051206227 0.040113654 0.12764327
0.026171518 0.05426186 0.041147385 0.0430506 -0.0074044294 0.07292606 0.0039973175 0.122282185
-0.08068607 -0.031452555 -0.117082156 0.011482388 -0.012418731 0.0058946456 0.12336895 0.003837717
-0.13307717 -0.07475416 0.112042375 -0.0027604422 0.06382153 -0.10963255 0.014813725 -0.041967217
-0.048721526 -0.17888233 -0.052901458 0.0633613 -0.09406371 0.038523473 0.050099548 -0.094288774
-0.044245303 -0.06658948 0.009025421 -0.025379302 -0.1014748 -0.15252988 0.17585737 0.03531394
0.031933434 0.1896219 -0.12958111 -0.13633457 -0.013552993 0.113359705 -0.06580975 -0.062904455
0.042726345 0.004112458 -0.12707065 -0.05654104 -0.041075647 -0.025392195 -0.106572546 -0.008519065
-0.027752439 -0.08899257 -0.249548 0.047637377 -0.060113087 -0.046451025 0.02141756 -0.080382615
-0.17882821 0.09504009 0.092031516 -0.022410518 0.10755629 -0.047255844 0.051347457 -0.03543737
00000000: e3ea e1bd 5444 5b3d c840 95bd 56e8 73bc
00000010: be55 2a3d 6028 69bd fc94 66bd 1b16 f3bc
00000020: 8ce6 81bc 74d2 9ebd 6a4e 90bd c077 3cbd
00000030: 3212 933d af16 91bd 57c1 0b3c 14fc 49bc
00000040: 01fc e9bd f063 b43c f023 ea3d 99b3 3abc
00000050: 0c4f dfba d5c9 183d 2809 b1bc 3499 bf3c
00000060: 46bc 63bd 9835 e23c 758b 46bc e6a8 b33c
00000070: ba6c dbbd 5c5d 17bd 79da 3e3d 1303 243d
00000080: 1492 aebc 4b70 08bd c647 34bd 8873 51bd
00000090: d26f 0cbc 38ec f13c 4b6c f53c e224 90bd
000000a0: 6f6a 21be 9d5c 05be b839 8dbc 8e27 14bd
000000b0: 9f41 b5bd 8fdc 7f3c 014f 623d b740 73bd
000000c0: 9561 083d 5cc6 d3bd d936 e7bd 059e ba3d
000000d0: 7209 66be ab56 d6bc bc79 c13d 40d4 34be
000000e0: 74eb 683d 6cbc a63c c36f 163c a885 92bb
000000f0: 06e4 19bb 28c3 98bd 7e24 73bd a237 c3bd
00000100: 7bae 99bd d2fb d3bd 2e6e 43bc 53f7 5fbd
00000110: ade3 023e e23d e7bd 5c70 11bd eb2e bcbc
00000120: f7c1 013d a61c 5fbc 3034 c0bd 0be8 82bd
00000130: fb15 1a3c 98d0 0a3e a1a7 1c3d 4fc8 ba3c
00000140: 8195 1abd e6af 5ebc fe90 d7bd 1ba8 c5bd
00000150: 1f88 4abc ec91 ff3c 3d29 80bd 6734 1cbe
00000160: 4882 e8bb 2950 9bbc 2301 d63c 6f66 58bb
00000170: 655e a9bd 73cf 0f3c 798b ef3c 0305 c23c
00000180: 32e5 25bc 2dc4 af3d 0d88 7cbc 6f53 54bd
00000190: 17ad 0d3a 73c2 903c 1647 9fbd 9715 123d
000001a0: ecad 35be 2669 a43d cf9d f03d 3b92 9abc
000001b0: f9b8 8c3b d20f 85bd 1f8c 82bd 5514 ed3c
000001c0: 2f72 8a3d e6c0 68be f699 a7bd 9d8a 50bd
000001d0: 550f 97bc 7843 8cbd 2362 7dbd cb6a 41bc
000001e0: 718a 563d 5f4d f33d 489e 8f3d 2498 c83c
000001f0: d871 a03d a653 483e 531d 9a3d 3b06 debd
00000200: c211 bf3d 5ed4 87bd 1c1f 793d d642 85bd
00000210: b84c 9bbd 8d76 123d c8ae cbbc 9f20 20bd
00000220: 08c7 583b fcb8 53bd be68 60bd 74f9 613b
00000230: 78b9 b3bd 4310 cd3b c124 13be 40d7 babd
00000240: 877f fabb d342 2bbe 3a31 bdbd d628 48bd
00000250: 68ad bb3c c80c a73c e37b 8cbd 7694 03bc
00000260: 3cd3 d83c d607 54bc 033f 9cbd e10a c93c
00000270: c382 ec3d f185 c23d 9664 3c3d 5ba6 613d
00000280: 12bf a63d 82ac 043e 271d 43be 3713 6f3d
00000290: e3e4 7dbd 15ea b7bd f423 783d f529 7fbd
000002a0: 279f 4bbd 4dec d03d 6157 64bd f302 9bbd
000002b0: c4c6 e3bd c031 3bbd fb3b 1ebe c94e 543d
000002c0: 88d5 d0bc 9d77 debc a0cf 133d b783 143e
000002d0: c6ec 9dbd 9fbd 513d 374e 243d ebb4 023e
000002e0: a765 d63c af41 5e3d 298a 283d d355 303d
000002f0: dba0 f2bb 425a 953d eefb 823b 156f fa3d
00000300: bd3e a5bd 65d4 00bd c5c8 efbd a020 3c3c
00000310: ef77 4bbc df27 c13b dca8 fc3d 3582 7b3b
00000320: 6245 08be b618 99bd 7976 e53d 89e8 34bb
00000330: ddb4 823d 0887 e0bd 44b5 723c d1e5 2bbd
00000340: 3990 47bd ee2c 37be 33af 58bd 92c3 813d
00000350: 79a4 c0bd caca 1d3d 2f35 4d3d 791a c1bd
00000360: 903a 35bd 1160 88bd 5cdf 133c 41e8 cfbc
00000370: 05d2 cfbd cb30 1cbe f413 343e 5aa5 103d
00000380: a2cc 023d 3e2c 423e e9b0 04be 4a9b 0bbe
00000390: 5f0d 5ebc 2229 e83d 43c7 86bd 0dd4 80bd
000003a0: d201 2f3d ccc1 863b cf1e 02be 9497 67bd
000003b0: f03e 28bd 4b03 d0bc b542 dabd 8c93 0bbc
000003c0: 1559 e3bc bd41 b6bd 8389 7fbe 691f 433d
000003d0: 2439 76bd 6e43 3ebd e173 af3c a49f a4bd
000003e0: be1e 37be 61a4 c23d 057b bc3d 4396 b7bc
000003f0: 7946 dc3d 588f 41bd b651 523d c726 11bd
