pth/model.pth (torch, 502673 bytes, 16 tensors)

conv1.0.weight f4 [6, 3, 3, 3]
0	0x3ecaa1b5	0.39576498
1	0x3f905f58	1.1279097
2	0x3e480bb3	0.19535713
3	0xbdd286d5	-0.102796234
4	0x3e56d34e	0.20979044
5	0x3e52e51a	0.20595208
6	0xbf2e821e	-0.68167293
7	0xbfdf15cf	-1.742853
8	0xbec198d8	-0.37811923
9	0x3f1d2dd5	0.6139806
10	0x3f93b1ab	1.1538595
11	0x3f02095c	0.5079553
12	0xbafa5455	-0.0019098619
13	0xbdea3cc0	-0.114373684
14	0x3e01212b	0.12610309
15	0xbf9ae767	-1.2101868
16	0xc0115562	-2.2708364
17	0xbf4890cf	-0.7834596
18	0x3ed4ded3	0.4157625
19	0x3f1cf0d6	0.61304986
20	0x3e152b21	0.14567234
21	0x3de899e0	0.11357474
22	0x3eaddacb	0.33955988
23	0xbd903501	-0.0704136
24	0xbdfca17f	-0.123354904
25	0xbf530197	-0.824243
26	0xbe734c72	-0.2375963
27	0x3f25acbd	0.647167
28	0x3f8e65ea	1.1124852
29	0x3f633c63	0.8876402
30	0x3f557eb9	0.8339649
31	0x3fa0070d	1.2502152
32	0x3fc489c5	1.5354544
33	0x3dce0150	0.10058844
34	0x3f2e1e6b	0.68015164
35	0x3f1800e6	0.5937637
36	0xbf3b2d9f	-0.7311649
37	0xbf3d29b4	-0.7389176
38	0xbf5cf5ef	-0.86312765
39	0xbf8a0730	-1.0783443
40	0xbf51907b	-0.81861085
41	0xbf88d395	-1.068957
42	0xbf0e4db7	-0.55587333
43	0xbf1aceac	-0.60471606
44	0xbf110f5b	-0.56664056
45	0xbd6b9ee9	-0.057524595
46	0xbec8c541	-0.39212993
47	0xbe72fbc5	-0.23728855
48	0xbe9d5408	-0.30728173
49	0xbf28aaf6	-0.65885866
50	0xbf12f8aa	-0.5741068
51	0x3e6f10c2	0.23346236
52	0xbdc44ab2	-0.095845595
53	0x3e7275a7	0.23677693
54	0xbec9fa65	-0.39448848
55	0xbf852e0f	-1.0404681
56	0xbf55aa28	-0.8346276
57	0xbf40d028	-0.7531762
58	0xbf90da56	-1.1316631
59	0xbfa225e3	-1.2667812
60	0xbf22c33f	-0.6357917
61	0xbf454c33	-0.77069396
62	0xbf373ca4	-0.71576905
63	0xbe2494dd	-0.16072412
64	0xbb94690c	-0.004529124
65	0x3e3f97d3	0.1871026
66	0xbe868333	-0.26271972
67	0x3d947c97	0.07250326
68	0x3cd8b60b	0.026453992
69	0xbe8f5b72	-0.27999455
70	0xbe8535dc	-0.26017654
71	0xbe2030c1	-0.15643598
72	0x3fa5dba5	1.2957655
73	0x3fad4e5d	1.353954
74	0x3fc85dfd	1.5653683
75	0x3f94fe26	1.164006
76	0x3fa6f556	1.304362
77	0x3fc264f3	1.5187057
78	0x3e683d57	0.2267965
79	0x3f307caa	0.6894022
80	0x3f27c5b6	0.6553606
81	0xbf14d292	-0.58133805
82	0x3c970652	0.018435631
83	0x3eaaf0ee	0.3338694
84	0xc0224bee	-2.5358844
85	0x3f2cbb2e	0.67473114
86	0x40086e5e	2.1317363
87	0xbf9f3a5a	-1.2439682
88	0xbe7dc920	-0.24783754
89	0x3fa8d55e	1.3190114
90	0xbf7ce197	-0.9878172
91	0x3dcf24fa	0.101144746
92	0x3f4d5ec2	0.80222714
93	0xc0399dfb	-2.9002674
94	0x3f28e07d	0.6596754
95	0x400af928	2.1714573
96	0xbfa1464d	-1.2599579
97	0xbee8aec7	-0.45445845
98	0x3f9dc2fc	1.232513
99	0xbf3df221	-0.74197584
100	0x3eba126b	0.36342177
101	0x3eb3284a	0.34991676
102	0xc019ab09	-2.4010642
103	0x3f1c6580	0.61092377
104	0x3fbe4fca	1.48681
105	0xbf4b3c32	-0.79388726
106	0x3daec564	0.08533743
107	0x3f83024a	1.0235074
108	0xbf7c35a6	-0.9851936
109	0xbea2a5d5	-0.31767145
110	0x3f2b6880	0.6695633
111	0xbee0a41c	-0.43875206
112	0xbffb05c4	-1.9611135
113	0xbf997085	-1.1987463
114	0x3b5f0718	0.0034031328
115	0x3e9ffb04	0.31246197
116	0xbe5615bf	-0.20906733
117	0x3f1f7244	0.6228373
118	0x3f72a1fa	0.94778407
119	0x4000728c	2.0069914
120	0x3f766c59	0.96259075
121	0xbefcc44d	-0.49368516
122	0x3eaa5894	0.33270705
123	0x3f94f007	1.163575
124	0x3f970da4	1.1801038
125	0x3f94e4ef	1.1632365
126	0xbf3383d3	-0.7012302
127	0xbe71ff9a	-0.2363266
128	0x3e544870	0.20730758
129	0xbefcb525	-0.49356952
130	0xbff958d0	-1.9480228
131	0xbf9bc354	-1.2168984
132	0xbe827913	-0.25482997
133	0x3d3e0ddd	0.04639994
134	0xbeffba5a	-0.49946862
135	0xbf62c2fe	-0.88578784
136	0xbfbc2b0d	-1.4700638
137	0xbeab7f60	-0.33495617
138	0xbf831b98	-1.0242796
139	0x3cff7fde	0.031188902
140	0x3ee4f03a	0.44714528
141	0x3fab61d8	1.3389235
142	0x3fcfbbeb	1.6229223
143	0x3fa0cb67	1.2562073
144	0x3dc0bb8f	0.09410774
145	0xbf18c0bd	-0.59669095
146	0xbe8a0465	-0.26956478
147	0xbf3e2ddb	-0.7428872
148	0x3d68dec3	0.056853067
149	0x3dc10894	0.09425464
150	0x3f5f866c	0.87314487
151	0x3f7e1fba	0.9926716
152	0x3f239af4	0.63908315
153	0x3eeac18f	0.45850798
154	0xbf1aef32	-0.60521233
155	0x3dc1e88c	0.09468183
156	0xbf65a5fe	-0.8970641
157	0x3d804b72	0.0626439
158	0x3f18bb2d	0.5966061
159	0x3de2a202	0.11066057
160	0x3f2e4f01	0.680893
161	0x3ef620d3	0.48071918

conv1.0.bias f4 [6]
0	0x3f6b2155	0.91847736
1	0x3e909018	0.28234935
2	0x3d1343f9	0.035953496
3	0x3dbff509	0.093729086
4	0x3e057fae	0.13036987
5	0xbf630da7	-0.88692707

conv2.0.weight f4 [16, 6, 3, 3]
0	0x3efa7df1	0.4892421
1	0x3e83a32d	0.2571043
2	0x3e6f08de	0.23343226
3	0xbeac9a83	-0.33711633
4	0xbf2dd1db	-0.6789834
5	0xbf6ca38e	-0.92437065
6	0xbd720829	-0.059089813
7	0x3e082f02	0.13299182
8	0x3f48ae2b	0.7839076
9	0xbf4e964e	-0.80698097
10	0xbebb6295	-0.3659865
11	0x3d01eb3f	0.03171849
12	0xbe65b98c	-0.22434062
13	0xbdef8598	-0.11695403
14	0x3ee95631	0.4557357
15	0x3e59e08e	0.21277067
16	0x3e079eee	0.1324422
17	0x3eac5520	0.33658695
18	0x3ee67833	0.4501358
19	0x3ed61236	0.4181077
20	0x3f07f0ca	0.5310179
21	0xbdc36b34	-0.09541932
22	0xbe008d1c	-0.12553829
23	0xbe3b981d	-0.18319745
24	0xbf26d434	-0.65167546
25	0xbecf972b	-0.4054502
26	0xbdb96ca0	-0.09053922
27	0xbe3049c3	-0.17215638
28	0xbed9a4f5	-0.42508665
29	0xbedf4f2e	-0.43615097
30	0xbf8fe513	-1.1241783
31	0xbfb3390f	-1.4001788
32	0xbf9e11f2	-1.2349226
33	0xbf96403a	-1.173835
34	0xbfc36b72	-1.5267165
35	0xbf520ee3	-0.82053965
36	0x3daacd5f	0.08339953
37	0x3e238983	0.15970425
38	0x3e98fa78	0.29878592
39	0xbe3d9840	-0.1851511
40	0x3cb49aef	0.022046534
41	0xbdec82c0	-0.11548376
42	0xbdd4b9b4	-0.103869826
43	0xbe709579	-0.2349452
44	0xbc43640f	-0.011925711
45	0x3ef1f384	0.472561
46	0x3f553b88	0.8329396
47	0x3f8076a7	1.003621
48	0xbf13db6b	-0.5775668
49	0xbe2aefd5	-0.16693051
50	0x3eba4669	0.36381844
51	0xbf1915ff	-0.5979919
52	0xbee44303	-0.44582376
53	0xbe9565ab	-0.2917913
54	0x3e124e33	0.14287643
55	0x3d801da4	0.062556535
56	0xbddf78c1	-0.10911704
57	0xbcd60b38	-0.026128396
58	0xbe1b8bb7	-0.15190016
59	0xbf645c60	-0.89203453
60	0xbcbbff37	-0.022948844
61	0xbc70a554	-0.014687855
62	0xbef4887f	-0.47760388
63	0xbeda4cd5	-0.42636743
64	0x3e6dbd9f	0.23216866
65	0x3e082970	0.13297057
66	0x3c0be9f0	0.008539662
67	0x3dc01630	0.09379232
68	0xbdbd29e5	-0.092365064
69	0xbd282b4a	-0.04105691
70	0xbe8026b3	-0.25029525
71	0x3d85f8ba	0.065415815
72	0x3e6e3729	0.2326323
73	0xbe285f3b	-0.16442578
74	0xbe28f909	-0.1650125
75	0x3d8b7e9a	0.06811257
76	0x3d2395bf	0.03993773
77	0x3e148519	0.14503898
78	0x3dc74067	0.09729081
79	0xbc9fa12a	-0.019486029
80	0xbe61443e	-0.21998689
81	0xbe09eea8	-0.13469946
82	0xbf386a99	-0.72037655
83	0x3f17938f	0.5920953
84	0x3e987ef8	0.2978437
85	0xbf574de8	-0.8410325
86	0x3fcdde1c	1.6083407
87	0xbe9f5a3c	-0.3112353
88	0xbeb49d98	-0.35276484
89	0x3f7a51ce	0.97781074
90	0x3e5173d6	0.20454344
91	0xbec5aeaf	-0.38609836
92	0xbf0a1b85	-0.5394824
93	0x3ec0fa0f	0.3769078
94	0xbecf3624	-0.40470994
95	0xbf341d31	-0.7035704
96	0x3ec3ba79	0.38228205
97	0xbe334848	-0.17508042
98	0xbe83c11b	-0.25733265
99	0x3e548332	0.20753172
100	0xbe21bf8a	-0.15795723
101	0xbe92c7f9	-0.28668192
102	0x3f01809e	0.5058688
103	0xbec3e677	-0.38261768
104	0xbe96aa34	-0.2942673
105	0x3eedc53f	0.4643955
106	0xbf1ff94d	-0.6248978
107	0x3c8ff259	0.017571615
108	0x3d58f6f1	0.052969877
109	0xbf9532fb	-1.1656183
110	0x3f064b17	0.5245833
111	0xbf892843	-1.0715412
112	0x3f7ef53a	0.99592936
113	0x3f684787	0.9073414
114	0x3f35dfb5	0.71044475
115	0x3ef565e7	0.47929308
116	0xbee302c6	-0.44338053
117	0x3d9b660c	0.07587823
118	0x3ee24e5e	0.44200414
119	0x3dec8f62	0.115507856
120	0x3e7d55b2	0.24739721
121	0xbdac970c	-0.084272474
122	0xbe571531	-0.21004178
123	0x3d383a18	0.044977278
124	0xbe7840e9	-0.24243511
125	0xbec21aa9	-0.37910965
126	0x3e0fa916	0.14029345
127	0xbd88894b	-0.066668116
128	0x3e294169	0.16528858
129	0xbd03a773	-0.032142114
130	0x3eb73625	0.35783496
131	0x3cbe5eb0	0.02323851
132	0xbdce9787	-0.10087495
133	0xbe30f8e4	-0.17282444
134	0xbe2fbe31	-0.17162396
135	0xbea2e079	-0.31811884
136	0x3eb21e75	0.34788862
137	0xbf1020a4	-0.56299806
138	0x3ee039a4	0.43793976
139	0xbf9dc172	-1.232466
140	0xbf2db678	-0.6785655
141	0xbf0d1183	-0.55104846
142	0x3e9b79ad	0.3036627
143	0x3f226cb8	0.6344714
144	0x3ed0a8ac	0.40753686
145	0x3f12df2c	0.57371783
146	0x3e4e2168	0.20129931
147	0x3d92e390	0.0717231
148	0xbe6cf5f2	-0.23140696
149	0x3d85830d	0.065191366
150	0x3ca09c38	0.01960574
151	0xbeac42e0	-0.33644772
152	0xbe9bd0f6	-0.30432862
153	0xbf8b9637	-1.0905217
154	0x3f738589	0.95125633
155	0xbd675d6a	-0.05648557
156	0x3ea81014	0.32824767
157	0xbf4843da	-0.78228533
158	0xbf332d63	-0.6999113
159	0xbf0aaeb7	-0.54172844
160	0x3f8585b9	1.0431434
161	0x3f1dafb8	0.6159625
162	0xbe71d43e	-0.2361612
163	0x3f07d40d	0.5305794
164	0xbea14c79	-0.31503657
165	0xbc1ac046	-0.009445256
166	0x3b2bbfc5	0.0026206833
167	0x3dad8499	0.084725566
168	0xbe57b846	-0.21066388
169	0xbc939a59	-0.018017935
170	0x3dd9c421	0.10633112
171	0xbdc85df2	-0.09783544
172	0x3e73bb6c	0.23801965
173	0x3e01739c	0.12641758
174	0xbf00c6c7	-0.5030331
175	0xbdb8eac1	-0.09029151
176	0x3ef629ea	0.48078853
177	0xbf52b2b2	-0.8230392
178	0xbf1e3f8c	-0.61815715
179	0x3ef5d438	0.48013473
180	0xbde558dd	-0.1119859
181	0xbeca44cb	-0.3950561
182	0xbf21fb33	-0.63273925
183	0x3f8d17a2	1.1022837
184	0x3e6def03	0.23235707
185	0xbf8ec2ab	-1.1153158
186	0x3fe57b65	1.7928282
187	0x3fa218a4	1.266377
188	0xbf0a89e6	-0.54116666
189	0xbd33a744	-0.04386069
190	0x3e992577	0.29911396
191	0xbd9812de	-0.07425474
192	0x3eb32a4b	0.34993204
193	0xbe0e4fab	-0.13897578
194	0x3cfe9a39	0.031079398
195	0x3d70f6b8	0.05882904
196	0x3eca92a0	0.3956499
197	0x3e7be4da	0.24599019
198	0xbe01f5e0	-0.1269145
199	0x3d941166	0.07229881
200	0x3ea67941	0.32514384
201	0xbee740bd	-0.4516658
202	0xbd18f788	-0.03734544
203	0xbde2a1d3	-0.11066022
204	0xbf122754	-0.5709126
205	0xbee8cfd1	-0.4547105
206	0x3d2fa27a	0.04287956
207	0xbe4999e6	-0.19687614
208	0xbefc7a33	-0.4931198
209	0xbe9b511d	-0.30335322
210	0xbdc61613	-0.09672179
211	0xbdd234fc	-0.10264012
212	0xbef7991c	-0.48359
213	0x3dcbd1b3	0.09952106
214	0x3ef5794d	0.47944108
215	0xbe2e7be6	-0.17039451
216	0x3dedbb49	0.116079874
217	0x3f49bff6	0.78808534
218	0xbf163856	-0.5867971
219	0xbf3da9d1	-0.74087244
220	0x3e5ec287	0.21753894
221	0x3f5df11f	0.86696047
222	0x3ea6e5b3	0.32597122
223	0xbe8193e7	-0.25308153
224	0xbd8ffd8e	-0.070307836
225	0xbe97f5a1	-0.29679587
226	0xbee8ff6a	-0.45507365
227	0x3e55668f	0.20839904
228	0xbd5f490a	-0.054513015
229	0xbf09992d	-0.5374935
230	0xbf174ac3	-0.5909845
231	0x3f6717cf	0.90270704
232	0x3ed62a60	0.41829205
233	0x3e80e7c7	0.25176832
234	0xbe7f7de3	-0.24950366
235	0x3ea9960f	0.33122298
236	0x3ebbef29	0.36705902
237	0xbf018c79	-0.5060497
238	0xbf2f34a2	-0.68439686
239	0x3d990fa7	0.074736886
240	0x3ea5761a	0.32316667
241	0x3d6cb2ee	0.05778783
242	0xbe09bfda	-0.13452092
243	0x3e2bd6bd	0.16781135
244	0x3f1cd2de	0.6125926
245	0x3e36f3ca	0.17866436
246	0xbf198a71	-0.5997687
247	0xbf9356be	-1.1510847
248	0x3f233abd	0.637615
249	0x3ebb3ac5	0.36568275
250	0xbf4be59b	-0.79647225
251	0xbfd12930	-1.6340694
252	0xbd4f7835	-0.050651748
253	0xbed5c7ea	-0.41754085
254	0xbe52de84	-0.20592695
255	0x3b505d84	0.003179402

conv2.0.bias f4 [16]
0	0x3fe8c55d	1.818523
1	0x3eb59d4e	0.35471576
2	0xbe7fa163	-0.24963908
3	0x3e53e4c1	0.20692731
4	0x3c0f49eb	0.008745651
5	0xbf48b1f0	-0.7839651
6	0x3dced106	0.10098462
7	0xbfce0ac3	-1.6097034
8	0x3e5867a6	0.21133289
9	0xbfad3b59	-1.3533736
10	0xbf25e8b7	-0.6480822
11	0x4011da0a	2.278933
12	0x3ca42682	0.020037893
13	0xbf564ffc	-0.83715796
14	0x3eae9124	0.34095109
15	0x3f0a15a7	0.5393929

conv3.0.weight f4 [32, 16, 3, 3]
0	0x3f1076c1	0.56431204
1	0xbdd72417	-0.105049305
2	0x3c9b67f3	0.018970465
3	0xbd2b5cb1	-0.041836444
4	0x3e998f9b	0.29992375
5	0x3e4795f5	0.19490798
6	0x3e12f1b5	0.14350016
7	0x3e681cf0	0.22667289
8	0x3e565f91	0.20934893
9	0xbf43fc2c	-0.7655666
10	0xbf0524e0	-0.5200939
11	0xbe25b00e	-0.16180441
12	0xbf7baa29	-0.9830652
13	0xbf99b576	-1.2008502
14	0xbed8e2f1	-0.42360643
15	0xbef2562e	-0.47331375
16	0xbf58f2fa	-0.8474575
17	0x3ddfabeb	0.109214626
18	0xbd1d5d46	-0.03841903
19	0xbeb995bf	-0.3624706
20	0xbdc19f69	-0.09454233
21	0x3c0a65c8	0.008447118
22	0xbe332d74	-0.17497808
23	0x3eba23d7	0.3635547
24	0xbd3f6f2e	-0.04673689
25	0x3e5c83e0	0.21534681
26	0xbdbd0272	-0.09228982
27	0xbe119bfc	-0.1421966
28	0xbce6c053	-0.02816788
29	0xbe5b8035	-0.21435626
30	0x3ee83db2	0.4535957
31	0xbe88760f	-0.26652572
32	0xbf057f23	-0.5214712
33	0x3f12e011	0.5737315
34	0x3eb9eda7	0.36314127
35	0x3e39c2aa	0.18140665
36	0x3e179af9	0.14805211
37	0x3e7ef86e	0.24899456
38	0xbc9eeb5e	-0.019399341
39	0x3e4a9c15	0.19786103
40	0xbe41ad3e	-0.18913743
41	0x3e90b734	0.28264773
42	0x3e5536f5	0.20821746
43	0x3c934018	0.017974898
44	0xbe48d064	-0.19610745
45	0x3eb67895	0.35638872
46	0xbe88095e	-0.26569647
47	0xbf124649	-0.57138497
48	0x3ea53040	0.32263374
49	0x3c48df10	0.0122602135
50	0xbe6a5e13	-0.22887449
51	0x3d798720	0.06091988
52	0x3ed5947a	0.4171484
53	0x3e36e9e3	0.17862658
54	0x3ea4cce6	0.32187575
55	0xbe8f2b19	-0.27962568
56	0xbeddd59e	-0.4332704
57	0x3ecbf8a5	0.39838138
58	0xbe9f7ad1	-0.3114839
59	0x3d66b80d	0.05632787
60	0x3d9ca430	0.07648504
61	0xbe103703	-0.14083485
62	0x3e022e09	0.12712874
63	0xbe0923b0	-0.1339252
64	0xbdd97435	-0.10617868
65	0x3dea0120	0.11425996
66	0xbdbb4fed	-0.09146104
67	0xbf4a4bb2	-0.7902175
68	0xbedf0ed8	-0.43566012
69	0x3e4b9546	0.19881162
70	0x3b42b7ba	0.002971156
71	0xbe197cb8	-0.14988983
72	0xbc3fcd89	-0.011706718
73	0xbbfcb05b	-0.007711453
74	0xbed2ed7f	-0.4119682
75	0x3dc7d3ae	0.097571716
76	0x3ee90367	0.45510408
77	0x3ea9f2ea	0.3319314
78	0xbdac8099	-0.084229656
79	0x3ee5dc58	0.4489467
80	0x3e731f7e	0.23742482
81	0xbe109e4b	-0.14122884
82	0xbe945f46	-0.28978938
83	0xbe0de124	-0.13855416
84	0x3e703d54	0.23460895
85	0xbe5d0aa8	-0.21586096
86	0xbe0a7583	-0.1352139
87	0x3d6e5f0b	0.05819611
88	0xbee00e65	-0.43760982
89	0xbe1d850b	-0.15382783
90	0x3db1f0b7	0.08688491
91	0xbd05caa3	-0.032663953
92	0x3ecb9aaf	0.39766452
93	0xbde80281	-0.113286026
94	0x3dad19ed	0.084522106
95	0x3d5e6d9b	0.054303747
96	0xbdbee52f	-0.09321057
97	0xbec32b68	-0.38119054
98	0x3e8e5a3e	0.27803224
99	0x3d0e31d3	0.034715485
100	0xbdc469c9	-0.095904894
101	0xbe9186b7	-0.28423092
102	0x3e039542	0.12849906
103	0x3e446181	0.1917782
104	0xbdeccce4	-0.11562517
105	0x3f1b06c9	0.6055723
106	0xbd95872c	-0.073011726
107	0xbe85d892	-0.26141793
108	0xbd2a16b1	-0.041525546
109	0x3e58f205	0.21186073
110	0x3f0a6cdf	0.54072374
111	0xbe9e0756	-0.30864972
112	0xbeac97f5	-0.33709684
113	0x3d982d9a	0.07430573
114	0x3e00f3e4	0.12593037
115	0xbea87454	-0.3290125
116	0x3e3ad9a2	0.18247083
117	0x3e860897	0.2617843
118	0xbedeccde	-0.43515676
119	0x3c943225	0.018090317
120	0x3eaba297	0.33522484
121	0xbeef5f60	-0.46752453
122	0xbed19c68	-0.4093964
123	0x3e1416e6	0.1446186
124	0x3dc61701	0.096723564
125	0xbda6378f	-0.08116066
126	0xbe993369	-0.29922035
127	0xbf0e23d8	-0.55523443
128	0xbde977d2	-0.11399807
129	0xbe9a3a3c	-0.30122554
130	0xbf072e39	-0.52804905
131	0x3d6b711c	0.057480916
132	0x3e10d66d	0.14144297
133	0x3d9cf237	0.07663386
134	0x3e45051e	0.19240233
135	0x3d7cd33c	0.061724886
136	0x3f07eca1	0.5309544
137	0x3f22125f	0.6330928
138	0xbe78b7c4	-0.24288851
139	0xbd9e3921	-0.0772574
140	0x3e6aea27	0.22940885
141	0xbc729339	-0.014805608
142	0xbe08a0ca	-0.13342586
143	0xbdb76cd3	-0.089563034
144	0xbb04bf0e	-0.002025548
145	0x3e43095c	0.19046539
146	0x3d7d6569	0.06186429
147	0xbe3702bb	-0.17872135
148	0x3da242e5	0.07922915
149	0xbcf0d94a	-0.029400486
150	0xbe15ea0a	-0.1464006
151	0x3e8588d1	0.26080945
152	0xbe5adb51	-0.21372725
153	0x3e3fc948	0.18729126
154	0xbe3458e9	-0.17612042
155	0xbea02c5f	-0.31283852
156	0xbf03e502	-0.51521313
157	0xbe9c92f4	-0.30580866
158	0xbec5d1c6	-0.38636607
159	0xbe81811d	-0.25293818
160	0xbe6b0d72	-0.22954348
161	0xbdc38cfc	-0.09548375
162	0xbe688edb	-0.22710745
163	0x3dd70702	0.104993835
164	0xbdae1cf6	-0.085016176
165	0xbeca7b3d	-0.39547148
166	0xbe2e5c7c	-0.17027467
167	0x3ef04c26	0.46933097
168	0x3e05c298	0.13062513
169	0x3f0705d2	0.52743256
170	0x3ebd4baf	0.36971804
171	0x3e3f7d54	0.18700153
172	0xbef01735	-0.46892706
173	0xbc75dba6	-0.015005982
174	0xbd5f64c7	-0.05453947
175	0xbec4d85c	-0.3844632
176	0xbe090aba	-0.13382998
177	0xbe014ff8	-0.12628162
178	0xbe5dae05	-0.21648414
179	0x3dec3330	0.11533201
180	0x3e8f3077	0.27966663
181	0x3db75292	0.08951296
182	0xbd8dfd72	-0.069331065
183	0xbe909390	-0.2823758
184	0xbe91e949	-0.28498295
185	0xbe879628	-0.26481748
186	0xbd15094f	-0.03638583
187	0xbee92e82	-0.45543295
188	0xbeac0222	-0.33595377
189	0x3ec2a47d	0.3801612
190	0x3d880364	0.06641272
191	0x3df5351e	0.11973022
192	0x3dfe751e	0.12424682
193	0x3dd59077	0.10427945
194	0xbe09bc62	-0.13450769
195	0xbea6fb10	-0.3261342
196	0xbe104278	-0.14087856
197	0xbe03e8c1	-0.12881757
198	0xbe5abe93	-0.21361761
199	0xbecf8d9b	-0.40537724
200	0x3daca3f1	0.08429707
201	0xbe345a3b	-0.17612545
202	0xbde26423	-0.11054256
203	0x3f060edd	0.5236643
204	0xbcfa79d2	-0.030575667
205	0x3b169c31	0.002298128
206	0x3ed8dbbb	0.4235514
207	0xbe020abe	-0.1269941
208	0xbe3181ba	-0.17334643
209	0x3d47c985	0.04877617
210	0x3e2718ce	0.16318056
211	0xbe8963e6	-0.2683403
212	0x3ecee322	0.40407664
213	0x3e99a4b0	0.3000846
214	0x3ec8db24	0.3922969
215	0x3eb9306d	0.36169758
216	0xbeb12085	-0.34595123
217	0xbeabc547	-0.33548948
218	0xbe6a1262	-0.22858575
219	0xbe8841f3	-0.26612815
220	0xbd4b1075	-0.04957624
221	0x3da74f4d	0.08169422
222	0x3e46fb9f	0.19431923
223	0x3e9ae2e8	0.3025124
224	0x3efc2bcf	0.49252173
225	0xbe8051ed	-0.25062504
226	0xbf22d881	-0.6361161
227	0xbee00a05	-0.43757644
228	0xbec7f226	-0.39051932
229	0xbf2f16de	-0.6839427
230	0xbf0c463b	-0.54794663
231	0x3e45a279	0.1930026
232	0x3e12d8bb	0.14340489
233	0x3d805d7b	0.0626783
234	0x3e929867	0.286319
235	0xbd6dced7	-0.058058586
236	0xbd886874	-0.06660548
237	0x3ca8700e	0.020561244
238	0x3d5a39ec	0.053277895
239	0x3d84c0b8	0.06482071
240	0x3d3d66e9	0.04624072
241	0x3d8e24f7	0.06940644
242	0x3e51a3ef	0.20472692
243	0xbeab4a8d	-0.33455315
244	0xbe8e5863	-0.2780181
245	0x3ea0011e	0.31250852
246	0xbe33d198	-0.17560422
247	0xbe8fe854	-0.2810694
248	0xbe152ea2	-0.1456857
249	0xbeff7368	-0.49892735
250	0xbe4534c9	-0.19258417
251	0xbdd83154	-0.105562836
252	0x3e61b906	0.22043237
253	0xbc2824eb	-0.010262708
254	0x3e723651	0.23653533
255	0x3d9fcda6	0.07802896

conv3.0.bias f4 [32]
0	0x3dcdb4d9	0.100442596
1	0x3db68d02	0.08913614
2	0x3e271157	0.16315208
3	0xbeecb3e4	-0.46230996
4	0x3e576206	0.21033487
5	0xbd611298	-0.054949373
6	0xbd4cc2d3	-0.049990486
7	0xbfa226dd	-1.266811
8	0x3f0393f8	0.5139766
9	0xbd12fe0e	-0.035886817
10	0x3f3cc471	0.73737246
11	0x3f5a895e	0.85365856
12	0xbf1b2a4f	-0.6061143
13	0xbed11c72	-0.40842015
14	0xbf5ce1e4	-0.8628218
15	0xbdaa0765	-0.08302192
16	0x3bf32584	0.0074202437
17	0xbee16411	-0.44021657
18	0x3d88555a	0.066569045
19	0x3f605437	0.876285
20	0xbe984090	-0.29736757
21	0xbea67fb8	-0.32519317
22	0xbf3399dc	-0.70156646
23	0x3ea82ed9	0.32848242
24	0xbeb09724	-0.3449031
25	0x3ebd4318	0.3696525
26	0x3e8de169	0.27711037
27	0xbf7538e7	-0.9578995
28	0x3e182bd4	0.14860469
29	0xbf15d9f1	-0.5853568
30	0x3e6835b0	0.2267673
31	0x3eac0a2e	0.33601516

conv4.0.weight f4 [64, 32, 3, 3]
0	0x3d4744f1	0.048649732
1	0xbe81b77f	-0.2533531
2	0x3e575797	0.21029507
3	0xbe7df545	-0.24800594
4	0x3d0339c8	0.032037526
5	0x3dfcc5d0	0.12342417
6	0x3dc9aa97	0.098469906
7	0xbdc012b1	-0.09378565
8	0xbdc8ce72	-0.09805001
9	0x3dd0a7e1	0.1018827
10	0x3d9816b0	0.07426202
11	0x3be9dcd8	0.0071369223
12	0x3dfd8114	0.12378135
13	0x3dba4f1d	0.09097121
14	0x3c034bd2	0.008013682
15	0x3e4c523d	0.19953246
16	0xbe80bb2f	-0.2514281
17	0x3dbb77b9	0.09153695
18	0xbcc7bb57	-0.024381323
19	0xbcc245fd	-0.023715014
20	0x3eee9446	0.465975
21	0xbda6961e	-0.08134101
22	0xbe99bc97	-0.30026695
23	0xbe3500cb	-0.17676084
24	0xbe3a392a	-0.18185869
25	0xbd9ad420	-0.07559991
26	0x3e96d1ce	0.29456943
27	0xbe02be6d	-0.12767954
28	0xbe3d828c	-0.18506831
29	0xbda56874	-0.080765635
30	0xbe6042f8	-0.21900547
31	0x3dad6645	0.08466772
32	0x3d68c160	0.05682504
33	0xbced363f	-0.02895653
34	0xbb0114f7	-0.0019696334
35	0xbc428a12	-0.011873739
36	0xbe0c3f83	-0.13696103
37	0x3e858f68	0.26085973
38	0x3d3df560	0.046376586
39	0x3e7b8bf7	0.24565111
40	0x3dc2ebb7	0.09517615
41	0xbe2f358c	-0.1711027
42	0xbdd3ef1d	-0.103483416
43	0xbe32aad3	-0.17447977
44	0xbe145b03	-0.14487843
45	0x3d82aec4	0.0638099
46	0xbe7e8ef4	-0.2485922
47	0xbea33c2a	-0.3188184
48	0x3d84788a	0.064683035
49	0xbc172a9f	-0.00922647
50	0xbe70ebc6	-0.2352744
51	0xbdd7516f	-0.10513579
52	0xbf14bf87	-0.5810475
53	0xbe6e35fb	-0.2326278
54	0xbddd23e5	-0.10797862
55	0xbe0b6b9a	-0.13615265
56	0x3d30e467	0.04318657
57	0xbe6ff427	-0.2343298
58	0x3e24fab0	0.16111255
59	0xbd83cbf9	-0.06435389
60	0x3f0662fd	0.52494794
61	0x3e605161	0.21906044
62	0x3e86389e	0.2621507
63	0xbe460972	-0.1933954
64	0x3e2cd604	0.16878515
65	0xbb9b1c27	-0.0047335806
66	0x3e0ec5e9	0.13942684
67	0xbd656d71	-0.056012575
68	0xbe084b0e	-0.13309881
69	0xbe5274e8	-0.20552409
70	0xbe8f572d	-0.27996197
71	0x3e8400e6	0.25781935
72	0xbe47987c	-0.19491762
73	0x3cc23993	0.023709094
74	0xbe0be45d	-0.13661332
75	0x3d653ec2	0.055968054
76	0xbe4ce509	-0.20009245
77	0xbe1cccba	-0.15312472
78	0xbd987c7f	-0.07445621
79	0x3ea18bcd	0.31551972
80	0xbe87816e	-0.26465935
81	0x3e18908a	0.14898887
82	0xbe89b437	-0.26895306
83	0xbe877dd6	-0.26463193
84	0xbd9b5b20	-0.0758574
85	0x3e7662fd	0.24061199
86	0x3ead94ba	0.33902532
87	0xbe37ca67	-0.17948304
88	0xbdd2c7ea	-0.10292037
89	0x3c925597	0.017863078
90	0xbe9881af	-0.2978644
91	0xbe7acd62	-0.2449241
92	0xbddf2037	-0.10894816
93	0xbe939643	-0.28825578
94	0x3c867ba1	0.016416373
95	0xbdae6515	-0.085153736
96	0xbd4a235b	-0.049350124
97	0xbe41d279	-0.18927945
98	0x3e1bb571	0.15205933
99	0x3dc4fbf0	0.09618366
100	0xbc9f7367	-0.019464208
101	0xbe27954d	-0.16365547
102	0x3c2b31c2	0.010448875
103	0x3e5ad657	0.21370827
104	0xbcf0f099	-0.0294116
105	0x3cce4bdc	0.025182657
106	0x3da4bdea	0.08044036
107	0x3e888b10	0.26668596
108	0x3c12be83	0.008956554
109	0xbe369971	-0.17831971
110	0xbe6cee67	-0.23137818
111	0x3d2ebdf3	0.04266162
112	0x3e6a8b82	0.2290478
113	0x3cb59b15	0.022168675
114	0x3e202e2b	0.15642612
115	0x3d866b39	0.0656342
116	0x3d05abcc	0.03263454
117	0xbd598c10	-0.05311209
118	0x3c723199	0.014782333
119	0xbe45e889	-0.19326986
120	0xbdf7a6b5	-0.12092344
121	0x3b5f9685	0.0034116816
122	0xbe434348	-0.19068635
123	0xbd26c163	-0.04071177
124	0x3e898383	0.26858148
125	0x3d7f7d50	0.062375367
126	0xbd806dbc	-0.0627093
127	0x3e186816	0.14883456
128	0xbd1a1119	-0.03761396
129	0x3e1510d8	0.14557207
130	0xbeb97bca	-0.36227256
131	0xbc851114	-0.016243495
132	0x3db27b85	0.08714966
133	0x3d5d7b8e	0.05407291
134	0x3ddeda55	0.10881487
135	0xbdc4b3bd	-0.09604595
136	0xbe0447a5	-0.12917955
137	0x38ad36a4	8.2594604e-05
138	0x3c683143	0.014171901
139	0x3e2c58bd	0.16830726
140	0x3e18a745	0.14907558
141	0x3de4118d	0.1113616
142	0x3bae8a4e	0.005326546
143	0x3dd62faa	0.1045831
144	0x3e2629fa	0.1622695
145	0x3df63172	0.1202115
146	0x3e1ef341	0.15522482
147	0xbc897d83	-0.016783481
148	0xbe1a9bcf	-0.15098499
149	0xbebe5ed4	-0.37181723
150	0xbe392121	-0.18079044
151	0xbe99670c	-0.2996143
152	0xbe4dbc9c	-0.2009148
153	0xbe61ac0a	-0.22038284
154	0xbe68235b	-0.22669737
155	0xbe842cb7	-0.25815365
156	0xbe13da42	-0.14438727
157	0xbcaef907	-0.02135898
158	0xbd8a8306	-0.06763272
159	0xbd1bee05	-0.03806879
160	0xbe1aeb5c	-0.15128845
161	0x3dad5bdd	0.08464787
162	0xbde037bc	-0.109481305
163	0x3df813c8	0.12113148
164	0xbe1113f1	-0.14167763
165	0xbd23ff14	-0.040038183
166	0xbe191b52	-0.14951828
167	0xbe049e41	-0.12950994
168	0x3d2c88c6	0.042122625
169	0xbe148c45	-0.14506634
170	0xbd2c3595	-0.042043287
171	0xbe864aee	-0.26229042
172	0xbe6f7dd5	-0.23387845
173	0x3cfec824	0.031101294
174	0x3c084c2c	0.008318942
175	0xbda9ae85	-0.0828524
176	0xbe0b6aa6	-0.13614902
177	0x3ec885a2	0.39164454
178	0x3dee7b21	0.11644579
179	0x3d4e2575	0.05032869
180	0xbe7de409	-0.2479402
181	0xbe18283d	-0.148591
182	0xbe820f7e	-0.25402445
183	0xbd232d18	-0.039837927
184	0xbe33cac2	-0.17557815
185	0xbdf8ea4e	-0.12154065
186	0xbe855c48	-0.26046968
187	0xbdeffabe	-0.11717747
188	0x3ec07d32	0.37595516
189	0xbe75a4e9	-0.2398869
190	0x3db2cf7c	0.08730981
191	0x3ef86ea8	0.48521924
192	0xbe8adc49	-0.2712119
193	0xbe8284ab	-0.25491843
194	0x3e257a69	0.16159977
195	0xbd1484fb	-0.036259633
196	0x3c2af2d4	0.010433871
197	0xbdbba1f0	-0.091617465
198	0xbd98be44	-0.07458165
199	0xbea87de6	-0.32908553
200	0xbe6bed53	-0.23039751
201	0x3e474f74	0.19463903
202	0xbe3099ff	-0.17246245
203	0x3d112ff4	0.035446122
204	0xbd6b75fe	-0.057485573
205	0x3cfffb5e	0.03124779
206	0xbd8531c8	-0.06503636
207	0xbe022e84	-0.12713057
208	0x3e4bb71f	0.19894074
209	0xbdfbc91d	-0.12294219
210	0x3d3b44f4	0.045720056
211	0xbe1433e7	-0.14472924
212	0x3c84f52f	0.016230194
213	0x3dda2134	0.10650864
214	0x3c8c19ba	0.017102111
215	0x3dd2c05e	0.102905974
216	0x3e33fff2	0.17578104
217	0xbe8ade23	-0.27122602
218	0xbd87500a	-0.06607063
219	0xbe336d33	-0.17522125
220	0xbd671c0a	-0.056423225
221	0xbda15af4	-0.07878676
222	0x3d8ffb51	0.07030357
223	0xbdc0a154	-0.09405771
224	0xbe41aec2	-0.18914321
225	0x3cbf7276	0.023370009
226	0xbe82497a	-0.25446683
227	0x3d96f98a	0.073718145
228	0x3dab5805	0.08366398
229	0x3e9b95cf	0.30387732
230	0x3e287d75	0.16454108
231	0xbd826ae4	-0.06368044
232	0xbd48675d	-0.0489267
233	0x3ea10692	0.31450325
234	0x3df35da8	0.11883098
235	0x3e63edad	0.22258635
236	0x3d789d8f	0.060697135
237	0x3e83701d	0.25671473
238	0x3da5ca6e	0.08095251
239	0xbed9444a	-0.42434913
240	0xbc829e65	-0.015944669
241	0xbe007814	-0.12545806
242	0x3ea5e0a3	0.32397947
243	0xbe1f767f	-0.15572546
244	0xbe4da1f1	-0.20081307
245	0xbd9b8f42	-0.07595684
246	0x3eb27db5	0.34861532
247	0x3ece1dfa	0.40257245
248	0xbe00e810	-0.12588525
249	0x3df5bec1	0.11999274
250	0x3dc026c9	0.09382398
251	0x3e66c4de	0.22536036
252	0x3dab01a7	0.083499245
253	0x3e9ea491	0.3098493
254	0x3e7e8683	0.24856
255	0xbc64416b	-0.0139316125

conv4.0.bias f4 [64]
0	0xbda3f882	-0.080063835
1	0xbeaf7604	-0.34269726
2	0xbead936f	-0.33901545
3	0xbf01544e	-0.50519264
4	0xbe4245ea	-0.18971983
5	0xbe9910f6	-0.29895753
6	0xbe61dbc8	-0.22056496
7	0x3e1d99d2	0.15390709
8	0xbee84195	-0.45362535
9	0x3d7bc004	0.061462417
10	0xbee21ab0	-0.44160986
11	0xbd141e5c	-0.036161765
12	0xbe8b7352	-0.2723642
13	0xbf28b560	-0.65901756
14	0x3d40f631	0.047109786
15	0xbd961ca4	-0.073296815
16	0x3ea1d060	0.3160429
17	0xbec8fb23	-0.39254102
18	0xbe0fafeb	-0.14031951
19	0x3e1c33f9	0.15254201
20	0x3e3320ce	0.17492983
21	0xbed427cd	-0.41436616
22	0xbe6f311a	-0.23358575
23	0xbf025095	-0.5090421
24	0xbe3de531	-0.18544461
25	0x3e1b2e67	0.1515442
26	0xbea03a5c	-0.31294525
27	0xbf16600e	-0.5874032
28	0xbda2b3e3	-0.07944467
29	0xbe4b0d1d	-0.19829221
30	0xbddcceb2	-0.107816115
31	0x3f055f1a	0.5209824
32	0x3ebe4d9a	0.3716858
33	0xbe57ef7a	-0.21087447
34	0x3e8faa60	0.28059673
35	0x3eae6e95	0.34068742
36	0xbd9d171d	-0.07670424
37	0x3ef0cf23	0.47033033
38	0xbceed9cd	-0.02915659
39	0xbeaed1d0	-0.3414445
40	0x3eb379ea	0.3505395
41	0xbd86b0ec	-0.06576714
42	0xbe742931	-0.23843838
43	0xbe9a1156	-0.3009135
44	0xbee08efc	-0.43859088
45	0xbd4e48bf	-0.050362345
46	0xbe80c375	-0.25149122
47	0xbee698f4	-0.4503857
48	0xbd1d0ef4	-0.03834434
49	0x3eece05b	0.4626492
50	0xbea9879b	-0.3311127
51	0xbedf9572	-0.43668705
52	0xbe86abad	-0.26302853
53	0xbebe7c79	-0.3720434
54	0xbe977cd7	-0.29587433
55	0xbe958d22	-0.29209238
56	0x3e8c61b9	0.27418306
57	0xbce1c2d5	-0.027558723
58	0xbf10b2e9	-0.56522995
59	0x3f19f150	0.6013384
60	0xbe28e9fa	-0.16495505
61	0xbe178127	-0.14795361
62	0xbe2d4fbf	-0.16924952
63	0x3eb9bbd2	0.36276108

conv5.0.weight f4 [128, 64, 3, 3]
0	0xbe5b06ec	-0.21389359
1	0xbe553f2e	-0.20824882
2	0xbdc91f3d	-0.09820411
3	0xbe968c8a	-0.29404098
4	0x3cc7eb60	0.024404228
5	0xbdaf39dc	-0.08555958
6	0xbd1a12c5	-0.037615556
7	0xbd520520	-0.05127442
8	0xbd25ae2f	-0.040449318
9	0x3d29b2da	0.04143033
10	0x3d6be008	0.0575867
11	0xbe699514	-0.22810775
12	0xbeaaf208	-0.3338778
13	0x3bf1ace9	0.007375349
14	0xbc4eeec1	-0.012630166
15	0x3d913dde	0.07091878
16	0xbd811fea	-0.06304915
17	0xbe0c23bd	-0.13685508
18	0xbca03d49	-0.019560473
19	0x3db5d28a	0.08878048
20	0x3e35612e	0.17712852
21	0x3e64d19e	0.22345588
22	0xbcb51c82	-0.02210832
23	0x3e11a19c	0.14221805
24	0x3e0557fe	0.13021848
25	0xbd320d20	-0.04346955
26	0x3d08b8db	0.033379417
27	0xbeab5563	-0.33463582
28	0x3eb9e972	0.36310917
29	0xbe57d006	-0.21075448
30	0xbe3e3a8c	-0.18577021
31	0xbc053b08	-0.00813175
32	0xbdb1b6f2	-0.08677472
33	0xbd84e00f	-0.06488048
34	0x3e1f83df	0.15577649
35	0xbd2b437d	-0.04181241
36	0xbe2da5fd	-0.16957851
37	0xbdf91e1b	-0.12163945
38	0x3c4c30f4	0.012462843
39	0xbdd63b7c	-0.104605645
40	0x3e3446e6	0.1760517
41	0xbe250ff1	-0.16119362
42	0xbda9b35b	-0.082861625
43	0xbe133f03	-0.14379506
44	0xbd93b4cc	-0.07212219
45	0x3c2a0d6a	0.010379175
46	0xbccbd2bb	-0.024880758
47	0xbc1f6232	-0.009728001
48	0x3d7fd6b4	0.062460616
49	0xbd3a94f4	-0.04555221
50	0x3e02b288	0.12763417
51	0x3cf7520c	0.03019049
52	0xbcb0330a	-0.021508712
53	0xbe36c229	-0.17847504
54	0xbc1bdf0f	-0.0095136305
55	0xbe82e180	-0.25562668
56	0x3e944219	0.28956679
57	0xbcb1503d	-0.021644706
58	0x3b038ca2	0.0020072837
59	0xbdd1990a	-0.10234268
60	0xbd4f944b	-0.050678533
61	0xbe6336cb	-0.2218887
62	0x3e2350e8	0.15948832
63	0xbde12322	-0.10993029
64	0xbd1fd22f	-0.039018806
65	0x3d838cde	0.06423353
66	0xbda8c803	-0.08241274
67	0xbd2834e1	-0.041066054
68	0xbe03dbf6	-0.12876877
69	0xbe76857c	-0.24074358
70	0x3e117d92	0.14208058
71	0x3b8678dc	0.004103763
72	0xbbc7398a	-0.0060798572
73	0x3df4d6eb	0.11955055
74	0x3e05385d	0.13009782
75	0x3d4cb93b	0.049981337
76	0x3dec2ac8	0.115315974
77	0xbcf22ce1	-0.029562416
78	0xbd79e601	-0.061010364
79	0xb62a3298	-2.5361423e-06
80	0xbd8731c5	-0.0660129
81	0xbd171483	-0.036884796
82	0x3d834dc4	0.06411317
83	0x3e0ce708	0.13760006
84	0x3c6846f7	0.014177076
85	0x3e256a78	0.16153896
86	0xbe48b4df	-0.19600247
87	0xbd4b2eea	-0.049605288
88	0xbde97ca6	-0.11400728
89	0xbcac25ae	-0.02101406
90	0x3b6e82d8	0.0036393907
91	0x3ddc7cf6	0.10766022
92	0xbdfaa10c	-0.122377485
93	0x3dcb2a65	0.099201955
94	0xbe539333	-0.20661621
95	0x3e593907	0.2121316
96	0xbda46ef4	-0.08028975
97	0x3e254acb	0.16141813
98	0xbd9dab2c	-0.07698664
99	0xbe348e6d	-0.17632456
100	0xbeb267bd	-0.3484477
101	0xbe192977	-0.14957224
102	0x3d265d6b	0.040616434
103	0xbdeb11c9	-0.114780016
104	0x3cd57706	0.026057731
105	0x3e7f7810	0.24948144
106	0xbd8c0e83	-0.068387054
107	0x3d9e9035	0.07742349
108	0x3e46b5ba	0.1940526
109	0xbe1ff07f	-0.15619086
110	0xbdecc901	-0.11561776
111	0x3caac3ae	0.02084526
112	0x3de3ab3e	0.11116646
113	0xbc95515a	-0.018227268
114	0x3cec3564	0.028834052
115	0xbd98b023	-0.074554704
116	0x3cd930e8	0.026512578
117	0xbcaa19f0	-0.020764321
118	0x3e09f71a	0.13473168
119	0x3e381a1a	0.17978707
120	0xbdb81f03	-0.0899029
121	0xbe664168	-0.22485888
122	0x3d14559d	0.03621446
123	0x3b9ad8fc	0.0047255736
124	0x3cc1e96f	0.02367088
125	0x3e37ab1f	0.17936371
126	0x3e365df2	0.17809275
127	0xbde18c3b	-0.11013075
128	0xbd3948cd	-0.045235444
129	0xbc2ed3e3	-0.010670635
130	0xbe842e78	-0.25816703
131	0x3da48d73	0.08034792
132	0xbce607ec	-0.02807995
133	0xbe430caa	-0.190478
134	0x3d972cd2	0.07381596
135	0xbca47886	-0.020077001
136	0xbdeeb498	-0.11655539
137	0x3e008084	0.12549025
138	0xbdd03434	-0.10166207
139	0x3e8ee58f	0.27909514
140	0xba2fcdfa	-0.0006706413
141	0x3db9430d	0.09045992
142	0x3e861a5e	0.26191992
143	0x3d63fe3d	0.055662382
144	0xbd541464	-0.05177726
145	0x3ded0834	0.1157383
146	0xbdf3b6e0	-0.11900115
147	0x3c57a02a	0.013160745
148	0xbdec7bf8	-0.11547083
149	0xbd0e15ea	-0.034688868
150	0x3c3174df	0.010831087
151	0x3db8db9c	0.09026262
152	0x3d054105	0.03253271
153	0x3d900cd9	0.070337005
154	0x3e879c13	0.26486263
155	0xbd866caa	-0.06563695
156	0xbc6056f3	-0.013692605
157	0xbed4a536	-0.41532296
158	0x3e1bd35d	0.15217347
159	0xbd375085	-0.044754524
160	0xbe07ef4a	-0.13274875
161	0xbd91d25b	-0.071202
162	0x3ebf5e99	0.3737686
163	0xbd7e82c8	-0.06213644
164	0xbda273b6	-0.07932226
165	0x3df210c3	0.11819603
166	0xbe945c33	-0.28976592
167	0x3e1f1cf0	0.15538383
168	0xbdbb2e76	-0.09139721
169	0x3bf9a1d0	0.0076181665
170	0x3e4075c6	0.18794927
171	0xbe889b32	-0.26680905
172	0xbe0209f3	-0.12699108
173	0x3ca0f7f0	0.019649476
174	0xbe24d3da	-0.1609644
175	0xbe4667ed	-0.19375582
176	0xbb1201d1	-0.0022278915
177	0x3dd1f835	0.1025242
178	0xbde0db85	-0.1097937
179	0x3d3c58a2	0.045982964
180	0xbd9676ac	-0.073468536
181	0x3cb845e7	0.02249427
182	0xbdbdbc60	-0.09264445
183	0x3e88debf	0.26732442
184	0xbc3393d8	-0.010960542
185	0x3e50050e	0.20314428
186	0xbd71c2a7	-0.059023526
187	0x3d4a9b2c	0.04946439
188	0xbe14439b	-0.14478914
189	0x3ddbd0f3	0.10733213
190	0xbe5b14fe	-0.21394727
191	0xbd367092	-0.04454095
192	0xbdbc73fe	-0.09201811
193	0xbdecde4a	-0.11565836
194	0xbda22da8	-0.079188645
195	0x3da4418e	0.08020316
196	0xbdc8779e	-0.0978844
197	0xbe13087c	-0.14358705
198	0xbdc0bf78	-0.0941152
199	0xbe1a0c7a	-0.15043822
200	0xbd837067	-0.064179234
201	0xbde8882b	-0.11354097
202	0xbc70e3bd	-0.014702735
203	0xbe6fc696	-0.23415598
204	0x3d810637	0.063000135
205	0xbdaf00da	-0.08545084
206	0x3d6753a7	0.05647626
207	0xbd90bc9e	-0.07067226
208	0x3e83124d	0.255999
209	0xbdcac9a8	-0.09901744
210	0x3d6bfdf0	0.05761522
211	0xbeb44af1	-0.35213426
212	0x3e0cce82	0.13750651
213	0xbe2f2614	-0.1710437
214	0x3d79494f	0.06086093
215	0xbd72214c	-0.059113786
216	0x3cb7e31e	0.022447165
217	0x3d00ed55	0.031476337
218	0xbbdba907	-0.0067034992
219	0xbd00d87a	-0.03145645
220	0xbc1dec21	-0.009638817
221	0xbe55acba	-0.20866671
222	0xbd8cc4a8	-0.06873447
223	0xbe390311	-0.18067576
224	0x3de40dac	0.1113542
225	0xbd14a6e5	-0.036291976
226	0x3e5124b7	0.20424162
227	0xbd306d9d	-0.043073285
228	0x3d300e3a	0.042982318
229	0xbe6bd48a	-0.23030296
230	0xbdda5436	-0.10660593
231	0xbd47c7b9	-0.048774455
232	0x3e30448d	0.1721365
233	0x3e08b484	0.13350111
234	0x3c8faf61	0.017539682
235	0x3e89c472	0.26907688
236	0x3d39f070	0.045395315
237	0xbe0d2071	-0.13781907
238	0xbeb07ab6	-0.3446862
239	0x3e292dca	0.16521373
240	0x3e3c6886	0.18399248
241	0x3c70e623	0.014703306
242	0xbddae141	-0.10687495
243	0xbdea8c57	-0.11452549
244	0xbc48eb9c	-0.012263205
245	0x3dcbd7d8	0.09953278
246	0x3c8d1985	0.017224083
247	0xbdf22859	-0.11824102
248	0xbc48c35d	-0.0122536095
249	0x3c3689c0	0.011141241
250	0xbda0cff5	-0.07852165
251	0xbdae1fc4	-0.085021526
252	0x3d9fe51b	0.0780737
253	0xbd2f8cee	-0.04285901
254	0x3c92ebf0	0.01793477
255	0x3e2f0b21	0.17094089

conv5.0.bias f4 [128]
0	0xbeb8d71c	-0.36101615
1	0xbe26d421	-0.16291858
2	0x3e504945	0.2034045
3	0xbe98fcb2	-0.2988029
4	0xbe3d2915	-0.18472703
5	0xbe7434a1	-0.23848201
6	0x3e6c0820	0.23049974
7	0xbd9879e1	-0.074451216
8	0xbd9c8eb5	-0.07644407
9	0xbd949910	-0.07255757
10	0x3e3d04fc	0.18458933
11	0x3e5b1648	0.21395218
12	0xbdce1049	-0.100617
13	0xbe0cf524	-0.13765389
14	0xbde7659c	-0.11298677
15	0x3d5d9317	0.054095354
16	0x3f136059	0.5756889
17	0x3d236868	0.03989449
18	0x3e39efda	0.18157902
19	0x3e04856c	0.12941521
20	0x3d2c67d6	0.042091213
21	0xbe121f8c	-0.14269847
22	0xbdbaf122	-0.09128024
23	0x3de05407	0.10953527
24	0x3d664993	0.05622251
25	0xbe879aaf	-0.26485202
26	0xbd95756b	-0.07297786
27	0xbd5cf5af	-0.05394524
28	0x3e7eef6d	0.24896021
29	0xbe2d0b81	-0.1689892
30	0xbeadff05	-0.33983627
31	0xbeb4cf33	-0.3531433
32	0xbeeb92b9	-0.46010378
33	0xbd7591ab	-0.059953373
34	0xbe529802	-0.20565799
35	0x3dd8037c	0.105475396
36	0x3d204574	0.039128736
37	0xbe19611d	-0.14978452
38	0x3c89b234	0.016808607
39	0xbe09e409	-0.13465895
40	0x3e0ff149	0.14056887
41	0xbda091b5	-0.078402914
42	0xbe670bb9	-0.22563066
43	0xbdb9608e	-0.090516195
44	0x3da29144	0.079378635
45	0x3e4cfbce	0.20017931
46	0x3f06fcb3	0.5272934
47	0x3ca39bef	0.019971816
48	0x3ce8d05d	0.028419668
49	0xbea0af00	-0.31383514
50	0xbda0f985	-0.07860092
51	0xbe89c430	-0.26907492
52	0xbdd3bbdf	-0.10338568
53	0x3e3206a0	0.1738534
54	0xbcfa8d1b	-0.030584862
55	0xbe62afc7	-0.22137366
56	0xbdbf01a5	-0.093264855
57	0xbe2dfbfd	-0.16990657
58	0xbe8edd08	-0.27903008
59	0xbe51e8df	-0.2049899
60	0xbdbc0e76	-0.09182446
61	0xbdde1292	-0.10843386
62	0x3d5bc889	0.053658042
63	0x3e17737b	0.14790146
64	0xbdaa1bb5	-0.08306066
65	0x3d90433e	0.070440754
66	0xbec912fe	-0.39272302
67	0xbc476570	-0.012170181
68	0x3e9b9ac9	0.3039153
69	0xbdfd5d96	-0.12371366
70	0x3da50d22	0.080591455
71	0x3e13ff15	0.14452775
72	0xbdb90109	-0.090334006
73	0x3da43db4	0.080195814
74	0x3ea32adf	0.31868646
75	0x3d785281	0.060625557
76	0xbdc18f0e	-0.09451114
77	0xbead3689	-0.3383067
78	0xbcf2724f	-0.029595522
79	0xbdd10508	-0.10206038
80	0x3ebd0742	0.369196
81	0xbc908265	-0.017640302
82	0x3d50696b	0.050881784
83	0xbdfefde2	-0.12450768
84	0x3c3ac9c9	0.011400648
85	0x3f04f7b7	0.5194048
86	0xbe35890d	-0.17728062
87	0x3dea469c	0.11439249
88	0xbeccb7cd	-0.3998398
89	0x3e1c5890	0.15268159
90	0x3d515148	0.051102906
91	0x3e56bf96	0.20971522
92	0xbe8e01e3	-0.27735814
93	0xbe82ec3e	-0.25570863
94	0x3d894d49	0.06704194
95	0xbe977148	-0.29578614
96	0xbe338f5d	-0.17535158
97	0xbd2ca737	-0.042151656
98	0x3e629954	0.22128803
99	0xbe3b99ea	-0.18320432
100	0x3e6276f7	0.22115694
101	0xbc86a8ba	-0.016437877
102	0xbd39750c	-0.04527764
103	0xbe25a17d	-0.16174884
104	0xbe03a4b5	-0.128558
105	0x3c281388	0.010258563
106	0x3f0ac803	0.54211444
107	0x3da9f602	0.082988754
108	0xbe1b86ce	-0.15188143
109	0xbe588a76	-0.21146569
110	0x3e081df4	0.13292676
111	0xbe11bead	-0.14232893
112	0xbd145235	-0.03621121
113	0xbd1b5abf	-0.03792834
114	0xbd5e4082	-0.05426074
115	0xbe90c30a	-0.28273803
116	0x3d36c56c	0.04462187
117	0xbd4ace7b	-0.04951332
118	0x3d11a7e7	0.035560515
119	0xbec1cda0	-0.37852192
120	0x3ecdd96d	0.40204945
121	0xbe853ff8	-0.26025367
122	0x3d27c1b4	0.040956214
123	0xbdf5c544	-0.12000516
124	0xbe12f1a0	-0.14349985
125	0xbe125014	-0.1428836
126	0xbcab60f2	-0.02092025
127	0xbe0570f8	-0.13031375

dense.0.weight f4 [120, 128]
0	0x3c4224e5	0.011849617
1	0xbe13f434	-0.14448625
2	0x3d66ad08	0.05631736
3	0x3d4eb025	0.050460953
4	0xbdcb564b	-0.099285685
5	0xbde9530f	-0.11392795
6	0x3d91f8f9	0.07127566
7	0x3d306dbb	0.043073397
8	0xbcfd2ec3	-0.030906087
9	0x3e936a21	0.28791907
10	0x3dfb71bd	0.12277553
11	0xbd46f1fc	-0.048570618
12	0x3dc23e8f	0.09484588
13	0x3c968a5d	0.018376524
14	0x3d690884	0.056892887
15	0xbcad1afb	-0.02113103
16	0xbcbf1142	-0.023323659
17	0x3ced5dd8	0.028975412
18	0x3e1f2b0a	0.15543762
19	0xbe2b5f95	-0.1673568
20	0x3cf73b43	0.030179625
21	0x3d22e9fa	0.03977392
22	0xbc7b506a	-0.015338996
23	0xbe0490c6	-0.12945852
24	0x3cf45885	0.029827366
25	0x3e1d2f10	0.15349984
26	0xbe0b7559	-0.13618983
27	0xbe17abb6	-0.14811596
28	0xbbfc4748	-0.007698927
29	0x3b0d13a8	0.0021526609
30	0xbdc44034	-0.09582558
31	0xbe4a3615	-0.19747193
32	0xbdb31700	-0.08744621
33	0xbc1dc54c	-0.009629559
34	0x3d981871	0.07426537
35	0xbcc8d312	-0.024514709
36	0xbc6b18a6	-0.014349138
37	0x3e0ed614	0.13948852
38	0xbe24b798	-0.1608566
39	0x3e1d1665	0.15340574
40	0xbc091b1d	-0.008368281
41	0x3d5afdd7	0.053464737
42	0x3dcb5821	0.09928919
43	0x3dffb33c	0.12485358
44	0xbd84a1af	-0.06476151
45	0xbd054569	-0.032536898
46	0xbe025ced	-0.12730761
47	0xbe09360f	-0.13399528
48	0x3d8477e7	0.06468182
49	0xbd8b327c	-0.067967385
50	0xbd837f8a	-0.064208105
51	0xbdb39245	-0.08768133
52	0xbd1c8372	-0.038211294
53	0xbd838110	-0.06421101
54	0xbb5a819a	-0.0033341409
55	0xbd51037c	-0.051028714
56	0x3e115108	0.14191067
57	0xbcfcb9ce	-0.030850317
58	0xbe057fb3	-0.13036995
59	0x3d635d08	0.055508643
60	0xbd3b732f	-0.045764145
61	0xbcc64f04	-0.0242076
62	0x3e018d56	0.12651572
63	0x3d97b089	0.07406718
64	0x3daa8a91	0.08327211
65	0xbcec87e9	-0.0288734
66	0x3cebe546	0.02879585
67	0xbd74d6ab	-0.059775036
68	0xbd9e5f32	-0.07733001
69	0xbde5d455	-0.1122214
70	0xbd5fb664	-0.0546173
71	0xbda52002	-0.08062746
72	0x3d6a064b	0.057134908
73	0x3e27720b	0.16352098
74	0x3e1255fa	0.1429061
75	0xbe1240cd	-0.14282532
76	0x3e054a94	0.1301673
77	0x3d361e24	0.044462338
78	0x39c3f7e2	0.00037377985
79	0xbe173edd	-0.14770074
80	0xbce56546	-0.028002393
81	0x3d36991e	0.044579618
82	0xbd8d0ad8	-0.06886834
83	0x3cdf2bb5	0.02724252
84	0x3e301726	0.1719633
85	0x3c866f32	0.016410444
86	0xbda5d891	-0.080979474
87	0x3cd3f9f4	0.025876023
88	0xbe85bb7f	-0.2611961
89	0xbd9e114b	-0.07718142
90	0x3b174996	0.0023084632
91	0xbdb48001	-0.08813477
92	0xbdbf9908	-0.0935536
93	0x3caa4136	0.020783048
94	0xbe0d66f6	-0.13808808
95	0x3df8c118	0.12146205
96	0xbe4f85f1	-0.20265938
97	0x3d2e99a7	0.042627003
98	0xbddc8690	-0.10767853
99	0x3df992bb	0.1218619
100	0xbd365215	-0.044511873
101	0xbd5a5bf3	-0.053310346
102	0xbcf2156e	-0.029551234
103	0xbdceb661	-0.1009338
104	0x3ca3e4aa	0.020006496
105	0x3a3705fc	0.0006981788
106	0x3df9c02d	0.12194858
107	0x3dfa6668	0.12226564
108	0xbd8c19f4	-0.06840888
109	0x3d8ccc74	0.06874934
110	0xbd11576d	-0.035483766
111	0xbd8700c2	-0.065919414
112	0x3dd00f15	0.10159127
113	0xbdeb2ade	-0.11482786
114	0x3e4bd14f	0.19904064
115	0xbe33e670	-0.17568374
116	0x3d601415	0.05470665
117	0xbe09adab	-0.13445155
118	0xbd86879c	-0.06568834
119	0xbe0b72c7	-0.13618003
120	0x3e32a380	0.17445183
121	0xbd7db482	-0.061939724
122	0x3d5eb1e3	0.054368865
123	0xbe5a69f0	-0.21329474
124	0xbd3161a8	-0.043306023
125	0xbdea6f5c	-0.11447021
126	0xbc567930	-0.013090417
127	0xbda4a2f6	-0.08038895
128	0xbe82d96d	-0.25556508
129	0xbe1d868d	-0.15383358
130	0x3dd753d9	0.105140395
131	0xbe10ef4a	-0.14153782
132	0xbc004c40	-0.007830679
133	0x3d59b71a	0.053153135
134	0x3dd170f0	0.10226619
135	0xbd3e3b40	-0.046443224
136	0xbe099978	-0.1343745
137	0xbdc1f935	-0.094713606
138	0x3da5ec74	0.081017405
139	0xbda85dcf	-0.082210176
140	0x3d5d1f3a	0.053984858
141	0x3d9919e2	0.0747564
142	0xbddd3a8f	-0.10802185
143	0x3e14f684	0.14547163
144	0xbcd364ca	-0.025804896
145	0x3cded094	0.027199067
146	0x3e33467f	0.17507361
147	0xbd1766ce	-0.036963277
148	0x3bee00fb	0.0072633005
149	0xbc92cc66	-0.01791973
150	0x3ca56e4d	0.020194197
151	0xbe05f726	-0.13082561
152	0xbc807ef5	-0.015685538
153	0xbe273fd8	-0.16332948
154	0xbe801b7b	-0.25020966
155	0x3d996716	0.07490365
156	0x3e3d93c1	0.18513395
157	0x3c32b431	0.010907219
158	0x3db441ab	0.08801588
159	0x3c0d47ef	0.008623107
160	0x3e6acdf7	0.22930132
161	0x3ce11e36	0.027480226
162	0xbd5253e9	-0.051349554
163	0x3d9f23ec	0.077705234
164	0xbea64458	-0.32474017
165	0xbbe0197c	-0.0068389755
166	0x3da74f17	0.08169382
167	0x3d86900d	0.06570444
168	0xbe5cea4e	-0.21573755
169	0x3da8ecfd	0.08248327
170	0x3d1f5047	0.038894918
171	0x3cef5461	0.02921504
172	0x3d83a764	0.064284116
173	0xbdff8806	-0.12477116
174	0x3d8d0f59	0.06887693
175	0xbe58c47b	-0.21168701
176	0x3cf10711	0.029422315
177	0xbd251b55	-0.04030927
178	0xbe127386	-0.14301881
179	0x3d0dd77a	0.034629323
180	0x3ce13c59	0.027494596
181	0x3e105f7d	0.14098926
182	0x3e182d72	0.14861086
183	0xbdb499d6	-0.088184044
184	0xbd7a5fa6	-0.061126374
185	0x3cbb62fd	0.02287435
186	0xbd880299	-0.066411205
187	0xbe341cff	-0.17589186
188	0x3ba894c4	0.0051446874
189	0xbd75471a	-0.05988226
190	0xbe1cade7	-0.15300713
191	0xbe47017d	-0.19434161
192	0x3e527073	0.20550708
193	0xbd8ae3cf	-0.06781732
194	0xbd862866	-0.06550674
195	0xbaeb35d6	-0.0017945122
196	0xbd52de3b	-0.051481467
197	0xbc99d36b	-0.01877757
198	0x3ccd8fb0	0.02509293
199	0x3dc0abc2	0.0940776
200	0xbda9c9c5	-0.082904376
201	0xbd9d9adf	-0.07695555
202	0x3e2a5e32	0.16637495
203	0xbe17e8eb	-0.14834945
204	0xba324653	-0.000680064
205	0xbdceea04	-0.10103229
206	0x3db4780a	0.08811958
207	0xba9c2668	-0.0011913301
208	0xbe0a1270	-0.13483596
209	0x3de46f8b	0.11154088
210	0x3d55649e	0.05209791
211	0xbdf76d28	-0.12081367
212	0xbcf130d9	-0.029442238
213	0x3c05ad34	0.008158971
214	0xbe20c8e0	-0.15701628
215	0x3d87f723	0.066389345
216	0x3c54d3bf	0.012989937
217	0x3d28cc8b	0.041210692
218	0x3cbd1ad6	0.023084085
219	0xbdfecfae	-0.124419555
220	0xbcc36fd7	-0.02385704
221	0x3b011f4e	0.0019702497
222	0xbdb76356	-0.08954494
223	0x3e012136	0.12610325
224	0xbde479bd	-0.11156032
225	0xbe170173	-0.14746647
226	0xbd9d5531	-0.076822646
227	0xbe422d9a	-0.18962708
228	0x3d292cae	0.041302375
229	0xbc887d12	-0.0166612
230	0x3d85c920	0.06532502
231	0xbe1822e7	-0.14857064
232	0xbe12fb83	-0.14353757
233	0x3e469619	0.19393195
234	0xbdf444ee	-0.1192721
235	0x3e01dab2	0.12681082
236	0xbdd8671e	-0.10566543
237	0x3e735cea	0.23765913
238	0xbe6315cf	-0.22176288
239	0xbe15635e	-0.14588687
240	0xbcd2d38f	-0.025735645
241	0xbc54c6e9	-0.012986877
242	0xbcd5d95e	-0.026104625
243	0xbd64d92b	-0.05587117
244	0x3db53463	0.088478826
245	0x3dad3054	0.084564835
246	0xbe561cc7	-0.20909415
247	0xbdd2490b	-0.10267838
248	0x3dd094f6	0.10184662
249	0xbe5681e4	-0.20947987
250	0x3e65eed2	0.22454384
251	0xbe16eea2	-0.14739469
252	0x3e0cf98b	0.13767068
253	0xbd38d91d	-0.04512893
254	0x3dcc7582	0.0998335
255	0xbe17b063	-0.1481338

dense.0.bias f4 [120]
0	0xbde92c67	-0.11385422
1	0x3ed1e961	0.40998366
2	0xbe9fc9ab	-0.31208548
3	0xbd9a3b1d	-0.07530806
4	0x3ef9c704	0.4878465
5	0x3f5571fd	0.8337706
6	0xbd80b79a	-0.06285019
7	0xbcb091ac	-0.021553837
8	0x3da0dce0	0.078546286
9	0x3f514f65	0.8176177
10	0xbd0f361b	-0.03496371
11	0x3e8a7629	0.27043274
12	0xbdf3af2c	-0.11898646
13	0xbe0f7625	-0.14009912
14	0xbeb817ca	-0.3595565
15	0x3ea15b94	0.3151518
16	0xbea0fc23	-0.31442365
17	0x3f080bf5	0.53143245
18	0x3d1947dc	0.037422046
19	0xbe41b18d	-0.18915386
20	0x3ee0d52c	0.43912637
21	0xbdd4f779	-0.10398764
22	0x3ec48618	0.38383555
23	0xbe3dc70d	-0.18532963
24	0xbd5b9649	-0.05361012
25	0xbe1f06bb	-0.15529911
26	0x3f09e8b2	0.5387069
27	0x3db04890	0.0860759
28	0x3f1d9fd2	0.6157199
29	0x3e9b9651	0.3038812
30	0xbe3dd204	-0.18537146
31	0xbd66748d	-0.056263495
32	0x3ece04a4	0.40237916
33	0x3f80dd66	1.0067565
34	0x3f411628	0.7542443
35	0xbca3f897	-0.020015998
36	0x3ead7962	0.3388167
37	0x3e42f6b9	0.1903943
38	0xbd875e4f	-0.06609785
39	0x3c40e0e0	0.011772364
40	0xbea6598e	-0.324902
41	0x3e118b5d	0.14213319
42	0x3e4e613a	0.20154276
43	0xbc8c39dc	-0.017117433
44	0xbc8adc47	-0.01695074
45	0x3e29645b	0.16542189
46	0xbd504c78	-0.050854176
47	0xbdd806fe	-0.10548209
48	0xbd3a114b	-0.045426648
49	0xbd632ff9	-0.055465672
50	0x3f302078	0.68799543
51	0x3ed281cc	0.41114652
52	0xbe7b5856	-0.24545416
53	0x3f0ee415	0.55816776
54	0xbe65a118	-0.22424734
55	0xbe7d7c25	-0.24754389
56	0xbe012a83	-0.12613873
57	0x3dde3857	0.1085059
58	0x3ccea389	0.025224464
59	0x3e29fd57	0.16600548
60	0xbe11da94	-0.14243537
61	0xbd6b4b48	-0.05744484
62	0xbeda7d8f	-0.4267392
63	0x3dce2b42	0.100668445
64	0xbcbb4729	-0.02286108
65	0x3e3ce99a	0.18448487
66	0x3e59c872	0.2126787
67	0x3ea63ca5	0.32468143
68	0x3c902735	0.01759682
69	0x3d411540	0.047139406
70	0xbd4463fc	-0.047946915
71	0x3f528f48	0.8224988
72	0x3c760938	0.015016846
73	0xbd68a355	-0.05679639
74	0x3d43ede6	0.0478343
75	0xbc97a1f0	-0.018509835
76	0x3c85d4eb	0.016336879
77	0x3c1d9855	0.009618838
78	0xbcfa1953	-0.030529654
79	0x3f43f213	0.7654125
80	0x3dbbc890	0.09169114
81	0xbdc82573	-0.09772768
82	0xbd75cccf	-0.060009774
83	0x3c30da6b	0.010794262
84	0x3e8910f7	0.26770756
85	0x3e91e8e1	0.28497985
86	0x3f42c35c	0.76079345
87	0xbd8f23e2	-0.06989266
88	0xbe07270f	-0.13198493
89	0xbd806f9d	-0.062712885
90	0xbdcf11b7	-0.10110801
91	0x3e7e40db	0.24829428
92	0x3cb90e2f	0.022589771
93	0xbd36c29d	-0.04461919
94	0xbdce0b97	-0.10060804
95	0x3d41840c	0.04724507
96	0xbc2ac815	-0.01042368
97	0xbdf4b7de	-0.119491324
98	0xbe375df9	-0.17906941
99	0x3e19bea3	0.15014128
100	0xbe0aed2f	-0.13567041
101	0xbdb421c0	-0.087955
102	0xbf0dae29	-0.5534387
103	0xbc2fc9bd	-0.0107292505
104	0xbdf53123	-0.11972263
105	0x3f167eb7	0.587871
106	0x3d3f1fda	0.046661235
107	0x3d458978	0.048226804
108	0x3d658f5f	0.056044932
109	0xbe2a606b	-0.16638343
110	0xbd6f6cd1	-0.058453385
111	0xbdd2e832	-0.10298194
112	0x3f18284d	0.59436494
113	0xbe25c444	-0.1618815
114	0xbdb9f125	-0.09079198
115	0xbcc907ad	-0.024539793
116	0xbe0e2b20	-0.13883638
117	0x3f44477d	0.7667158
118	0xbe02abb9	-0.1276082
119	0x3e1966b6	0.14980587
